CNN1_checkpoint.pt (torch, 304735 bytes, 7 tensors)

conv1.weight f4 [2, 3, 3, 3]
-0.00882573 0.29364315 0.25335065 0.33632353 0.24034767 0.01581202 0.2640594 0.25654343
0.24322535 0.25651762 0.29695347 0.26665524 0.35456508 0.12010399 0.3746802 0.32581148
0.052444108 0.26063034 0.27096465 0.3817344 0.3683166 0.30325258 0.23885152 0.1973559
0.123047456 0.43412617 0.40420893 -0.060834806 -0.09802807 -0.011494292 -0.07602721 -0.166071
-0.13823326 -0.07602826 0.062044755 -0.08222231 0.0024224815 0.016442612 0.049152214 0.022516707
-0.019133579 0.021722788 0.086096644 -0.00807144 -0.008423543 -0.18445908 -0.20546018 -0.027343558
0.034818217 -0.014332013 -0.12988514 -0.19842264 -0.16825797 0.08094695
00000000: cb99 10bc 6558 963e 2db7 813e 9932 ac3e
00000010: b31d 763e 3688 813c cb32 873e a959 833e
00000020: 1110 793e 4756 833e 490a 983e 0987 883e
00000030: 8e89 b53e 15f9 f53d 15d6 bf3e c3d0 a63e
00000040: a2cf 563d 5771 853e e1bb 8a3e b172 c33e
00000050: fe93 bc3e ec43 9b3e 7e95 743e aa17 4a3e
00000060: 4e00 fc3d c945 de3e 79f4 ce3e eb2d 79bd
00000070: f1c2 c8bd 8e52 3cbc 27b4 9bbd 840e 2abe
00000080: 058d 0dbe b4b4 9bbd a422 7e3d 2c64 a8bd
00000090: 7fc2 1e3b a8b2 863c d553 493d f574 b83c
000000a0: 06be 9cbc fdf3 b13c 7053 b03d 133e 04bc
000000b0: e602 0abc d7e2 3cbe 2764 52be 99ff dfbc
000000c0: 8c9d 0e3d d2d0 6abc 9c00 05be 4e2f 4bbe
000000d0: d14b 2cbe 84c7 a53d

conv1.bias f4 [2]
-0.28706127 0.16146907
00000000: b2f9 92be 2658 253e

conv2.weight f4 [1, 2, 3, 3]
0.3405971 0.2186921 0.35174263 0.062605426 0.13712202 -0.03546159 0.012403308 -0.1709364
-0.27573118 0.013446806 0.09993011 0.13506593 0.28086373 0.110933065 0.027139517 -0.0015227549
0.114998855 -0.14625542
00000000: be62 ae3e d2f0 5f3e 9c17 b43e 4637 803d
00000010: b769 0c3e 2c40 11bd 3f37 4b3c f409 2fbe
00000020: a32c 8dbe fe4f 5c3c 28a8 cc3d b94e 0a3e
00000030: 5fcd 8f3e e030 e33d b153 de3c 2d97 c7ba
00000040: 8584 eb3d fbc3 15be

fc1.weight f4 [128, 576]
0.0043212986 -0.015303516 0.0018025686 0.009194386 0.017899195 0.0312729 0.021063438 0.060287483
0.021901598 -0.011260452 -0.02779909 -0.034438018 -0.024906898 -0.028607735 -0.030614782 -0.0041572903
-0.0021920477 0.0026617302 0.0076056374 0.007894223 -0.005709522 0.010133374 -0.013083697 -0.02256923
0.034938708 0.015763268 0.017895695 0.03198757 0.043476872 0.03631833 0.03841975 0.074798055
0.055274893 0.0032875144 0.009977798 0.0028535177 -0.0042702444 0.013353384 -0.010586913 0.016792635
0.02331035 0.030498315 0.024283947 0.011484362 -0.007331556 0.025380708 0.007952679 -0.003474468
0.025487252 0.01831584 0.009568819 0.028832693 0.02517732 0.031547826 0.04392853 0.07844693
0.044969607 0.030034667 -0.0038907796 0.005870812 -0.010341154 0.0022240109 -0.004135587 0.001694695
0.026042398 0.02831111 0.016564555 0.009534351 0.015518712 0.022043364 0.017095376 -0.01325059
0.04382941 0.029522527 0.034206346 0.03950982 0.046639267 0.07830789 0.06390067 0.081729405
0.04813868 0.020903155 0.0034777622 -0.002000146 -0.018041082 0.0036504976 0.017031573 0.036390983
0.051736712 0.06164596 0.0455679 0.03954385 0.03862213 0.044080127 0.02180224 0.042503178
0.018720662 0.026376951 0.01857755 0.03711765 0.035565913 0.03476126 0.049279373 0.05944788
0.01306637 -0.024538597 -0.026123336 -0.018621696 -0.024336126 -0.020719592 -0.018350251 0.008601032
0.017793354 0.06478683 0.03599067 0.014570019 0.028336542 0.03637651 0.018159704 0.021978099
0.007996602 0.009830088 0.010661789 0.024759348 0.03472625 0.025954453 0.022995843 0.025992826
0.005315329 0.015912093 -0.0128522385 -0.02600029 -0.016145304 -0.03064607 -0.012303662 0.013864865
-0.00925671 -0.0097547015 0.0042089475 0.01700925 0.009335909 0.016485166 -0.009760444 0.0017319849
0.04617065 0.051439665 0.024642158 0.067844644 0.061977923 0.027810475 0.066701725 0.06108321
0.04041318 0.038277484 0.02011409 0.031145992 0.014916853 0.03139114 0.015616221 0.011948637
0.029170007 0.035050735 0.037220083 0.01989353 0.012130833 0.03612179 0.026335636 0.018936882
0.08412734 0.066375546 0.08523716 0.07549712 0.049566597 0.072477765 0.044931617 0.04294715
0.047243327 0.04078651 0.029101092 0.040045038 0.019890947 0.03195467 -0.008503799 0.021063678
0.024554834 0.03979449 0.048463948 0.03355998 0.0640204 0.059527192 0.03172799 0.043458376
0.033295184 0.02911492 0.021849083 0.039812736 0.0081538055 0.010863942 0.024735987 0.049569868
0.028609795 0.022194648 -0.0031391624 0.013191688 0.02598318 0.014218156 -0.0036515428 -0.004498889
0.007875221 0.02791734 0.02937542 0.02170335 0.016593765 0.03872358 0.040750712 0.046957165
0.010348253 -0.015458518 -0.0014046428 0.0034847923 -0.008466974 -0.00241756 0.00067576236 0.011449471
0.008243828 -0.030672234 -0.0011069153 -0.0006529253 -0.0056081573 -0.02385427 -0.037497744 -0.034658164
-0.024199404 -0.007524391 -0.008076203 -0.028264802 -0.042546306 -0.036720626 -0.024702951 -0.016418085
0.016618386 0.011530789 0.033734526 -0.0055318843 0.005218871 0.0053976187 -0.0051092557 -0.0072338805
-0.018449495 -0.030805722 -0.011748854 -0.0187487 -0.03158409 -0.03532151 -0.05918639 -0.06654434
00000000: ae99 8d3b 99bb 7abc 2a44 ec3a 0da4 163c
00000010: 55a1 923c 0318 003d 3b8d ac3c 02f0 763d
00000020: fb6a b33c c27d 38bc ebba e3bc e10e 0dbd
00000030: 8d09 ccbc c55a eabc dacb fabc e139 88bb
00000040: 75a8 0fbb 6c70 2e3b b638 f93b c556 013c
00000050: f116 bbbb 7306 263c 015d 56bc 1be3 b8bc
00000060: e41b 0f3d f821 813c fe99 923c 6605 033d
00000070: ce14 323d 87c2 143d 075e 1d3d b92f 993d
00000080: ed67 623d 5773 573b eb79 233c 1502 3b3b
00000090: 68ed 8bbb 27c8 5a3c bb74 2dbc b590 893c
000000a0: 59f5 be3c 9ad7 f93c 21ef c63c e828 3c3c
000000b0: 8d3d f0bb 34eb cf3c f44b 023c e6b3 63bb
000000c0: a4ca d03c 1a0b 963c 89c6 1c3c 8a32 ec3c
000000d0: ab40 ce3c 4b38 013d 67ee 333d c9a8 a03d
000000e0: 0d32 383d 430b f63c 73fc 7ebb f15f c03b
000000f0: f26d 29bc b6c0 113b d183 87bb 8720 de3a
00000100: de56 d53c b3ec e73c 64b2 873c f735 1c3c
00000110: 3242 7e3c 4994 b43c 9a0b 8c3c 0119 59bc
00000120: 7886 333d 3ad9 f13c f41b 0c3d 0dd5 213d
00000130: d108 3f3d e35f a03d 5bde 823d bf61 a73d
00000140: 112d 453d 183d ab3c 2beb 633b e214 03bb
00000150: e4ca 93bc 303d 6f3b cc85 8b3c b60e 153d
00000160: e0e9 533d 7980 7c3d 68a5 3a3d bbf8 213d
00000170: 3d32 1e3d 5d8d 343d 9c9a b23c d017 2e3d
00000180: 135c 993c 7a14 d83c f22f 983c ad08 183d
00000190: 90ad 113d d361 0e3d 2bd9 493d 9f7f 733d
000001a0: 5414 563c 2b05 c9bc 9b00 d6bc 878c 98bc
000001b0: 8e5c c7bc 22bc a9bc 4453 96bc 58eb 0c3c
000001c0: 5ec3 913c f5ae 843d f46a 133d 17b7 6e3c
000001d0: 0922 e83c 89ff 143d a9c3 943c 6a0b b43c
000001e0: 2e04 033c 610e 213c c9ae 2e3c 1ed4 ca3c
000001f0: 1d3d 0e3d 6f9e d43c c761 bc3c e8ee d43c
00000200: 362c ae3b 145a 823c 3292 52bc 8ffe d4bc
00000210: 2843 84bc 780d fbbc 4c95 49bc 7529 633c
00000220: 75a9 17bc 2fd2 1fbc 36eb 893b fc56 8b3c
00000230: a4f5 183c e60b 873c 45ea 1fbc c503 e33a
00000240: 6f1d 3d3d 66b2 523d 5ade c93c 22f2 8a3d
00000250: 90dc 7d3d cbd2 e33c ea9a 883d 6332 7a3d
00000260: 4a88 253d dac8 1c3d 4ec6 a43c e125 ff3c
00000270: d165 743c ff93 003d 2edb 7f3c 37c4 433c
00000280: f0f5 ee3c 5c91 0f3d 1674 183d c2f7 a23c
00000290: 67c0 463c 71f4 133d d5bd d73c 8521 9b3c
000002a0: f44a ac3d e7ef 873d d290 ae3d 3c9e 9a3d
000002b0: 5806 4b3d 396f 943d 370a 383d 5ae9 2f3d
000002c0: 3882 413d c10f 273d 6a65 ee3c 4406 243d
000002d0: 57f2 a23c e6e2 023d 8553 0bbc bc8d ac3c
000002e0: 3827 c93c 8cff 223d 2282 463d 3176 093d
000002f0: 211d 833d c9d2 733d 35f5 013d 6901 323d
00000300: 8860 083d 6a82 ee3c d9fc b23c ae12 233d
00000310: 8a97 053c adfe 313c 20a3 ca3c c609 4b3d
00000320: 175f ea3c 8dd1 b53c 68ba 4dbb f321 583c
00000330: aeda d43c 45f3 683c b94e 6fbb 6b6b 93bb
00000340: 1207 013c e8b2 e43c b9a4 f03c 39cb b13c
00000350: a6ef 873c 9e9c 1e3d 38ea 263d 2856 403d
00000360: b88b 293c b945 7dbc fe1b b8ba 1d61 643b
00000370: 10b9 0abc ed6f 1ebb a525 313a 9096 3b3c
00000380: 1f11 073c 5644 fbbc ea15 91ba 1329 2bba
00000390: a2c4 b7bb 086a c3bc 3c97 19bd b8f5 0dbd
000003a0: d43d c6bc 2b8f f6bb 0d52 04bc 968b e7bc
000003b0: 0945 2ebd 5e68 16bd d85d cabc 387f 86bc
000003c0: 4823 883c a2eb 3c3c 372d 0a3d cf44 b5bb
000003d0: 1003 ab3b 82de b03b 8b6b a7bb 300a edbb
000003e0: 6523 97bc 485c fcbc 447e 40bc e096 99bc
000003f0: 525e 01bd 4aad 10bd 6e6d 72bd 6648 88bd

fc1.bias f4 [128]
-0.00051670446 -0.02209397 0.029241513 0.07095834 0.017590014 0.14428703 -0.0019488506 -0.009955057
9.843096e-05 -0.038893018 0.039377525 0.0036099295 -5.7350694e-06 0.029017292 -0.007764987 0.06839571
0.115584776 0.052760888 0.06376088 -0.056314845 -0.016492492 0.12372818 0.15862463 -6.895816e-06
0.09802738 0.12532339 -0.010465536 -0.025729226 0.031111948 -0.032360543 -0.0012487624 0.029182756
0.13421595 -0.017483471 0.04481052 0.043915987 0.07803743 0.121856764 -0.046074186 0.14874136
-0.014633109 -0.023472667 -0.030833827 -0.0069276937 -0.008534942 0.0803254 -0.06029774 -0.0073748436
0.069258645 -0.003943669 0.026191927 -0.000102230886 -1.5400383e-07 0.09909665 0.039706368 -0.002310233
0.087214604 -0.0043042623 -0.042628795 0.11062809 0.12862128 -0.06942996 -0.02841614 0.07925248
0.07177694 0.13807653 0.07986144 -0.00054358644 0.030790076 -0.0100244535 0.06606371 0.06593504
0.2235547 -3.4012492e-06 0.04703173 -0.03434529 0.20746392 -0.037146915 0.025714122 0.17474517
0.081487924 0.1322656 0.013137897 -0.002961213 0.087081626 0.086689405 -0.0065669524 0.13052255
-0.00014470553 0.019211529 -0.0067685973 0.057612173 -0.01107395 -4.6278157e-05 0.07170964 0.050126985
0.055365898 -0.023447767 0.019716972 0.08286734 0.11172099 0.015745997 0.066082545 -0.06853794
-0.0036151374 0.1002039 0.15599193 -0.049489014 0.07719412 0.0556474 -2.0079187e-10 -0.0047327066
-0.01191315 0.06310887 0.17498235 -0.048144888 0.032571785 -0.002436773 -0.043691605 -0.003995782
0.0032558462 -9.687437e-08 0.08880237 0.15837356 0.009741686 0.066205546 -0.037678633 0.00047173633
00000000: 7373 07ba 6afe b4bc e68b ef3c 9b52 913d
00000010: ef18 903c fbbf 133e 9370 ffba 891a 23bc
00000020: b86c ce38 494e 1fbd 544a 213d 9194 6c3b
00000030: df6f c0b6 acb5 ed3c 6f71 febb 0d13 8c3d
00000040: b6b7 ec3d cd1b 583d 1095 823d 65aa 66bd
00000050: 431b 87bc 3365 fd3d 7f6e 223e 9c62 e7b6
00000060: 94c2 c83d c654 003e a477 2bbc 19c6 d2bc
00000070: 7cde fe3c 7d8c 04bd 83ad a3ba ad10 ef3c
00000080: e86f 093e 7f39 8fbc 3c8b 373d 40e1 333d
00000090: 17d2 9f3d 0a90 f93d 49b8 3cbd a84f 183e
000000a0: b5bf 6fbc c049 c0bc 3997 fcbc b501 e3bb
000000b0: 24d6 0bbc a581 a43d c3fa 76bd aca8 f1bb
000000c0: 7ad7 8d3d e539 81bb 7490 d63c ca64 d6b8
000000d0: 405c 25b4 2ff3 ca3d 25a3 223d 4767 17bb
000000e0: 929d b23d c50a 8dbb 889b 2ebd fb90 e23d
000000f0: 4cb5 033e 4b31 8ebd f7c8 e8bc 204f a23d
00000100: caff 923d ef63 0d3e 658e a33d 787f 0eba
00000110: 783b fc3c 9b3d 24bc 694c 873d f308 873d
00000120: 86eb 643e 0441 64b6 58a4 403d a6ad 0cbd
00000130: 6c71 543e 5d27 18bd 6ca6 d23c 66f0 323e
00000140: 24e3 a63d a270 073e 5540 573c e910 42bb
00000150: da57 b23d 378a b13d 972f d7bb b4a7 053e
00000160: 18bc 17b9 7f61 9d3c 1ccb ddbb befa 6b3d
00000170: 836f 35bc cb1a 42b8 81dc 923d f451 4d3d
00000180: 5ac7 623d 8815 c0bc 7d85 a13c 5ab6 a93d
00000190: f9cd e43d c0fd 803c 4956 873d 9f5d 8cbd
000001a0: f1eb 6cbb b437 cd3d 59bc 1f3e feb4 4abd
000001b0: f317 9e3d 87ee 633d e3c5 5caf d214 9bbb
000001c0: 5f2f 43bc 393f 813d 932e 333e 9333 45bd
000001d0: fe69 053d 44b2 1fbb f8f5 32bd 0def 82bb
000001e0: 0960 553b 4009 d0b3 04de b53d ae2c 223e
000001f0: 989b 1f3c c696 873d e954 1abd 6153 f739

fc2.weight f4 [12, 128]
-0.009985534 -0.014111335 -0.029959803 -0.045314584 -0.038640194 -0.11649961 0.016151763 -2.2104628e-05
0.0076832804 0.0019693875 -0.03175031 -0.019733362 -7.00584e-15 -0.03162368 -0.00022005453 -0.061029155
-0.058156814 -0.04995203 -0.029221743 0.016248379 -0.003478185 -0.1030665 -0.11639979 1.9127556e-07
-0.076790616 -0.08870167 -0.015119088 -0.052044977 -0.0011159178 -0.016527921 -0.013224615 -0.008312898
-0.09316318 -0.04009259 -0.044930574 -0.01469386 -0.05778766 -0.057054933 -0.01406005 -0.08081502
-0.0011646474 -0.022063266 -0.011638826 0.012869163 0.011365337 -0.068162985 -0.013858875 -0.0059778336
-0.014314984 0.0007048335 0.009389101 -6.671172e-08 1.0534377e-08 -0.07689627 -0.021641325 0.013675739
-0.04955209 -0.004051613 -0.01532055 -0.09765167 -0.107418455 -0.0028698796 0.01018562 -0.0704727
-0.04248965 -0.10131698 -0.041596033 -0.005741954 -0.034541696 -0.012836039 -0.07482672 -0.057641484
-0.15421413 -1.1416502e-21 -0.05323737 -0.0028586187 -0.16118817 0.0012804378 -0.021482553 -0.059957683
-0.06683321 -0.06997382 -0.0062797684 -0.0242423 -0.06719388 -0.05256712 -0.007383208 -0.0618281
-2.0465936e-15 -0.049103327 0.00876895 -0.022549652 -0.005485569 -7.5330414e-14 -0.025139472 -0.02063746
-0.053576082 -0.02346831 -0.04812257 -0.07159517 -0.03848755 -0.0005539422 -0.049229667 -0.0010583539
-0.030991282 -0.091257 -0.10629179 -0.0063607646 -0.05447519 -0.053987473 -1.6675373e-12 -0.010096613
-0.025881646 -0.06734682 -0.10030364 -0.023734452 -0.02208823 -0.042973448 -0.049600326 -0.0045653703
0.011172119 4.6817994e-19 -0.09170445 -0.12834832 -0.009042129 -0.04565623 -0.0048928857 -2.8727763e-05
0.02093356 0.036894917 0.08865818 0.1095859 -0.12129025 -0.011831289 -0.03690197 -0.10308671
-0.050614435 -0.08151891 0.016472254 -0.139166 -1.5444508e-05 0.023965938 0.058745977 -0.0019672944
0.07144174 0.028976012 0.080407366 0.017459448 -0.0556412 -0.004145504 -0.17322654 -2.2682227e-06
0.06373752 0.09514034 0.05676678 -0.11516912 0.1145635 -0.052802537 0.029466167 0.08294545
0.04985621 -0.2366239 -0.19655713 2.9929557e-05 -0.10317869 0.036630966 -0.0043209842 -0.12142794
-0.06368825 0.0890231 -0.012899855 -0.122706525 -0.04944529 0.0033972047 -0.055247467 -0.08034962
0.11155648 0.0605737 0.10996253 0.00021847038 -0.016376423 0.04089762 0.028670575 0.043954007
-0.05814678 -0.069879904 -0.1905523 -0.10310952 0.029057233 -0.07723125 0.044012506 -0.03840404
0.1079307 0.01827307 -0.042691145 -0.20288983 -0.013242734 0.060012136 -0.064181395 -0.12526016
0.17641437 -0.0005697544 -0.010697211 -0.048437644 -0.13490072 0.018947799 -0.101149485 0.071742654
-0.12185193 0.032232083 -0.011502925 0.016096551 0.05026738 0.057261877 -0.14703447 0.034950126
-0.000688041 -0.22959402 0.09376776 0.044835802 0.025227424 0.0056510903 0.022430308 -0.06837715
0.03437709 -0.03086476 -0.010944894 -0.15185672 0.094665505 0.08664224 0.029647158 0.017627891
0.061477423 -0.04878381 0.030473849 -0.041194472 0.01980377 -0.018026887 2.4406027e-08 -0.11726388
-0.123709396 0.030848956 -0.036022186 -0.01975402 0.027639426 0.06482564 -0.24123304 -0.03196597
0.075406104 -2.3126963e-08 -0.20239937 -0.16171144 0.082781926 0.07272659 0.03945922 0.0074368445
00000000: 5d9a 23bc 3b33 67bc 436e f5bc c99b 39bd
00000010: 2e45 1ebd 5997 eebd b450 843c 546d b9b7
00000020: 07c4 fb3b d710 013b 9d0c 02bd dca7 a1bc
00000030: 7869 fca7 d587 01bd 70be 66b9 b5f9 79bd
00000040: d735 6ebd 809a 4cbd 7062 efbc 521b 853c
00000050: 43f2 63bb 8714 d3bd 0363 eebd 6d61 4d34
00000060: 6644 9dbd 39a9 b5bd 0db6 77bc 1d2d 55bd
00000070: fd43 92ba 9065 87bc 0eac 58bc d232 08bc
00000080: 56cc bebd 2138 24bd 1f09 38bd 84be 70bc
00000090: c1b2 6cbd 6fb2 69bd 205c 66bc 5882 a5bd
000000a0: 15a7 98ba 06be b4bc c6b0 3ebc 2fd9 523c
000000b0: ae35 3a3c 0999 8bbd 5610 63bc b4e1 c3bb
000000c0: 6589 6abc 93c4 383a bed4 193c 2843 8fb3
000000d0: aefa 3432 cb7b 9dbd 2649 b1bc 3510 603c
000000e0: 22f7 4abd 65c3 84bb 0b03 7bbc 99fd c7bd
000000f0: 35fe dbbd 9714 3cbb 96e1 263c fe53 90bd
00000100: a109 2ebd 477f cfbd 9a60 2abd 0027 bcbb
00000110: 987b 0dbd 404e 52bc c03e 99bd 7a19 6cbd
00000120: 4fea 1dbe 7485 ac9c 6e0f 5abd aa57 3bbb
00000130: 830e 25be 5dd4 a73a 2efc afbc 3096 75bd
00000140: dadf 88bd 6f4e 8fbd 84c6 cdbb ca97 c6bc
00000150: f29c 89bd 9f50 57bd d6ee f1bb 763f 7dbd
00000160: fd78 13a7 9220 49bd a4ab 0f3c 0cba b8bc
00000170: 4ac0 b3bb 07a1 a9a9 4bf1 cdbc e40f a9bc
00000180: 9872 5bbd 9d40 c0bc 2c1c 45bd 7da0 92bd
00000190: 1fa5 1dbd 6f36 11ba 0ca5 49bd 77b8 8aba
000001a0: 6ee1 fdbc f3e4 babd 83af d9bd f66d d0bb
000001b0: 6021 5fbd f821 5dbd 5daf eaab 446c 25bc
000001c0: bf05 d4bc 21ed 89bd ff6b cdbd c16e c2bc
000001d0: 60f2 b4bc ed04 30bd b629 4bbd 1a99 95bb
000001e0: 430b 373c ad2e 0a21 8bcf bbbd be6d 03be
000001f0: 7025 14bc 0702 3bbd 8054 a0bb 67fc f0b7
00000200: db7c ab3c 201f 173d 6b92 b53d 936e e03d
00000210: 0667 f8bd 06d8 41bc 8526 17bd 201f d3bd
00000220: 1551 4fbd 63f3 a6bd d2f0 863c 8881 0ebe
00000230: d48e 81b7 3754 c43c 9f9f 703d b9ed 00bb
00000240: 0c50 923d 1a5f ed3c 9eac a43d 1e07 8f3c
00000250: 07e8 63bd 02d7 87bb 4c62 31be c537 18b6
00000260: d188 823d f0d8 c23d 4884 683d cadd ebbd
00000270: 45a0 ea3d 7947 58bd 0863 f13c 4edf a93d
00000280: 0636 4c3d 894d 72be 4646 49be 3c11 fb37
00000290: 594f d3bd 5a0a 163d 0b97 8dbb 36af f8bd
000002a0: fc6e 82bd be51 b63d ea59 53bc 8f4d fbbd
000002b0: 2587 4abd a3a3 5e3b 2b4b 62bd 578e a4bd
000002c0: b977 e43d 211c 783d 0934 e13d 3215 6539
000002d0: d927 86bc 4384 273d 8ede ea3c 1e09 343d
000002e0: 512b 6ebd 321d 8fbd 2420 43be 162b d3bd
000002f0: 6f09 ee3c 6b2b 9ebd 7546 343d 8e4d 1dbd
00000300: c50a dd3d 68b1 953c e9dc 2ebd 5ac2 4fbe
00000310: 0df8 58bc 49cf 753d 8971 83bd 3344 00be
00000320: f8a5 343e 925b 15ba 5b43 2fbc 8d66 46bd
00000330: 6a23 0abe 6a38 9b3c 7627 cfbd d0ed 923d
00000340: 818d f9bd ca05 043d c476 3cbc eadc 833c
00000350: 2be5 4d3d 6e8b 6a3d 3490 16be dd27 0f3d
00000360: a65d 34ba b21a 6bbe 5009 c03d bfa5 373d
00000370: bea9 ce3c c82c b93b c4bf b73c 5209 8cbd
00000380: fece 0c3d 18d8 fcbc 3652 33bc 5480 1bbe
00000390: fddf c13d 7d71 b13d 99de f23c 5e68 903c
000003a0: c0cf 7b3d 88d1 47bd 4ba4 f93c 89bb 28bd
000003b0: 843b a23c 1fad 93bc 6ca5 d132 0c28 f0bd
000003c0: 5a5b fdbd f3b6 fc3c 008c 13bd 2fd3 a1bc
000003d0: 146c e23c 4ec3 843d cb05 77be c0ee 02bd
000003e0: 846e 9a3d bba8 c6b2 c841 4fbe af97 25be
000003f0: 9289 a93d aef1 943d fe9f 213d c6b0 f33b

fc2.bias f4 [12]
-0.22134684 0.05597335 -0.04958501 -0.016730612 -0.21619314 -0.09718402 -0.041789982 0.10979223
-0.015112749 -0.028076306 0.19536959 -0.043779124
00000000: bfa8 62be 5044 653d a719 4bbd a30e 89bc
00000010: bc61 5dbe 6a08 c7bd f92b 2bbd c0da e03d
00000020: 779b 77bc 4800 e6bc f70e 483e bd51 33bd
