CNN2_checkpoint.pt (torch, 32471 bytes, 5 tensors)

conv1.weight f4 [2, 3, 3, 3]
0.08831682 0.09345858 0.0826751 0.123547025 0.12828675 0.11687269 0.06562982 0.070259646
0.059241757 0.10821365 0.11348487 0.10331997 0.13011867 0.13680772 0.12697418 0.06829944
0.07472148 0.06441518 0.110031724 0.11340127 0.10314546 0.11555178 0.119367205 0.10892239
0.05528492 0.058074925 0.047968764 0.01077663 0.006592784 0.010861624 0.013021119 0.008362341
0.012866959 0.02753788 0.02314446 0.027641471 0.005772237 0.00091814797 0.0053005735 0.01193059
0.006600375 0.010619112 0.028217798 0.022886233 0.02716375 0.0066199796 0.0022801512 0.0068372656
0.018945994 0.014262336 0.019022945 0.035090085 0.030862726 0.035459347
00000000: 73df b43d 3667 bf3d 9051 a93d 3906 fd3d
00000010: 9a5d 033e f35a ef3d ed68 863d 4ae4 8f3d
00000020: 7ca7 723d 1e9f dd3d c16a e83d 6c99 d33d
00000030: d43d 053e 5317 0c3e 8505 023e 94e0 8b3d
00000040: 9307 993d 1bec 833d 5058 e13d ed3e e83d
00000050: ed3d d33d 69a6 ec3d cb76 f43d b412 df3d
00000060: 7172 623d f9df 6d3d e57a 443d 7690 303c
00000070: 4808 d83b f4f4 313c 8856 553c 3302 093c
00000080: f0cf 523c 1f97 e13c 7399 bd3c 5e70 e23c
00000090: 0925 bd3b deaf 703a 6fb0 ad3b 8578 433c
000000a0: f547 d83b c9fb 2d3c 0329 e73c e97b bb3c
000000b0: 8386 de3c 6aec d83b 976e 153b 240b e03b
000000c0: a134 9b3c 93ac 693c 02d6 9b3c 9fba 0f3d
000000d0: d4d3 fc3c d23d 113d

conv1.bias f4 [2]
-0.595056 0.38070816
00000000: 9755 18bf 2eec c23e

conv2.weight f4 [1, 2, 2, 2]
-0.53665316 -0.51740676 -0.44502166 -0.4249362 0.17919905 0.17923404 0.19974473 0.2000608
00000000: 1a62 09bf c574 04bf e1d9 e3be 3d91 d9be
00000010: f57f 373e 2189 373e e289 4c3e bddc 4c3e

fc1.weight f4 [12, 625]
0.036244933 0.0399202 0.034289353 0.025292173 0.036950562 0.043141536 0.080898486 0.09546971
0.056567725 0.028395798 0.03611813 0.06124154 0.04938636 0.029842716 0.023770506 0.010517126
0.03644861 0.07649274 0.0768853 0.06811081 0.047442302 0.041861992 0.031237558 0.035913035
0.03563318 0.004123931 0.0034159576 0.00371247 0.010916558 0.015075239 0.00011110898 0.022664413
0.046420008 0.022231968 -0.014024235 0.002639546 0.02773588 0.009273016 -0.009614176 -0.016570406
-0.022466924 0.007843681 0.03942222 0.04482037 0.02883548 0.0074186367 0.0006967277 -0.0065958397
-0.004334207 -0.0040655513 0.0013442112 0.015632775 0.040615827 0.044088416 0.049366616 0.019481823
0.011649582 0.038891435 0.027640227 -0.006334018 0.006107782 0.014145757 0.005358616 -0.013103387
-0.017640524 -0.026059266 0.003907081 0.045185957 0.048764408 0.020786835 0.011360819 -0.002086222
0.00022612428 -0.0005977641 -0.0013462369 0.00063440134 0.023016237 0.0072631915 0.0010548037 0.026659492
0.028558413 0.015089819 0.017298277 0.018213265 -0.02500023 -0.040418506 -0.0025964282 -0.012787867
-0.026925575 -0.03832928 -0.0650613 -0.031388324 0.017560149 0.015386156 -0.0136651015 -0.01952694
-0.022327218 -0.016797189 -0.014445582 -0.020694233 0.010229354 0.029633898 0.022229847 0.005699939
0.016100002 0.030553779 0.036246426 0.018410109 0.00606503 -0.02119896 -0.02254124 -0.018493915
-0.03636028 -0.011381539 -0.013564445 -0.068083934 -0.035337005 0.011004163 0.004688911 -0.013162797
-0.012442485 -0.0154046025 -0.022207363 -0.012013085 -0.016380653 0.04166844 0.062598445 0.060732845
0.024584739 0.010555506 0.028575422 0.056829944 0.03512128 0.009985518 -0.04439798 -0.032834344
-0.034247335 -0.04530209 0.011100688 0.027592052 -0.018620636 -0.007304799 0.02705389 0.037589904
0.038120147 0.015494117 -0.009625462 -0.012464885 -0.007828633 -0.009675341 0.041968 0.07043365
0.064622216 0.0475665 0.01390368 0.00934369 0.058877848 0.014066971 -0.016977344 -0.04357056
-0.04217678 -0.028224748 -0.0355858 0.013615649 0.029021272 -0.01909454 0.014697943 0.030304134
0.03849211 0.033836395 0.019520605 0.007081016 -0.005990119 -0.0058450857 -0.0016634702 0.0018306824
0.023089763 0.04108867 0.0041530635 0.00057585596 -0.010728219 -0.030715363 -0.031261213 -0.06778006
-0.0758513 -0.044920087 -0.06127469 -0.07266492 -0.0116341105 -0.023939818 -0.06298859 -0.006983905
0.008684043 0.0029294945 -0.0024695322 -0.0019301076 0.0033487256 0.0077492595 0.009912437 -0.0012313728
0.067800954 0.06409855 0.047920782 0.024355274 0.0021381911 -0.008682611 0.017190028 -0.010321266
-0.02802277 -0.021042995 -0.027602987 -0.017950319 -0.022580199 0.010021663 -0.00043422478 -0.05683956
0.005158337 0.031339627 0.03594872 0.012142563 0.014208759 0.028582867 0.032665923 0.034804646
0.044649992 0.014379487 0.031383734 0.03839311 0.024438506 -0.0003347687 -0.044349425 -0.030032005
-0.07305455 -0.04678355 -0.09064915 -0.07473073 -0.045861986 -0.021654362 0.031044714 -0.030390587
-0.085441075 -0.049095366 -0.005308334 -0.010731388 -0.019598836 -0.018226074 0.002007649 0.024696745
0.052736808 0.06229714 -0.03384327 -0.030347368 -0.036356773 -0.056861214 -0.04836057 -0.052607134
00000000: 9175 143d 5d83 233d fe72 0c3d 8831 cf3c
00000010: 7959 173d 2eb5 303d 1bae a53d a085 c33d
00000020: 8fb3 673d 4e9e e83c 9bf0 133d 69d8 7a3d
00000030: 5a49 4a3d b678 f43c 5dba c23c 0650 2c3c
00000040: 234b 153d 3aa8 9c3d 0a76 9d3d ae7d 8b3d
00000050: dc52 423d 7b77 2b3d e8e5 ff3c 8c19 133d
00000060: 19f4 113d 0a22 873b 42de 5f3b e94c 733b
00000070: 5ddb 323c 23fe 763c 2e03 e938 b8aa b93c
00000080: e822 3e3d d11f b63c e8c5 65bc 3cfc 2c3b
00000090: 5b36 e33c d9ed 173c c784 1dbc a9be 87bc
000000a0: 8e0c b8bc c882 003c 3279 213d 9095 373d
000000b0: 6238 ec3c 0918 f33b 9ba4 363a ea21 d8bb
000000c0: f705 8ebb 5138 85bb 3e30 b03a 4e10 803c
000000d0: c85c 263d 0e96 343d a634 4a3d 5898 9f3c
000000e0: e3dd 3e3c a04c 1f3d c26d e23c 988d cfbb
000000f0: ca23 c83b 9bc3 673c 5497 af3b 97af 56bc
00000100: dc82 90bc 3e7a d5bc f906 803b e914 393d
00000110: 30bd 473d 2749 aa3c bb22 3a3c ffb8 08bb
00000120: c61b 6d39 45b3 1cba 3774 b0ba f44d 263a
00000130: 8c8c bc3c 1100 ee3b 5741 8a3a 0265 da3c
00000140: 55f3 e93c 4a3b 773c 1eb5 8d3c fc33 953c
00000150: 48cd ccbc e08d 25bd d628 2abb 3484 51bc
00000160: 0693 dcbc 2aff 1cbd dc3e 85bd 0b91 00bd
00000170: 4dda 8f3c 3716 7c3c 97e3 5fbc f6f6 9fbc
00000180: 92e7 b6bc 429a 89bc 2aad 6cbc f486 a9bc
00000190: 0599 273c cac2 f23c 5e1b b63c 8ec6 ba3b
000001a0: 27e4 833c eb4b fa3c 2277 143d ccd0 963c
000001b0: 29bd c63b 71a9 adbc 68a8 b8bc 8d80 97bc
000001c0: 84ee 14bd a279 3abc 683d 5ebc 976f 8bbd
000001d0: 89bd 10bd ce4a 343c 70a5 993b c6a8 57bc
000001e0: 91db 4bbc 9663 7cbc 37ec b5bc 88d2 44bc
000001f0: b830 86bc 87ac 2a3d 9d33 803d 01c3 783d
00000200: ef65 c93c 00f1 2c3c 0117 ea3c 84c6 683d
00000210: 55db 0f3d 4c9a 233c a8da 35bd 4e7d 06bd
00000220: ef46 0cbd af8e 39bd a9df 353c ba08 e23c
00000230: 4e8a 98bc 185d efbb 1fa0 dd3c dff7 193d
00000240: df23 1c3d 09db 7d3c 1db4 1dbc 8439 4cbc
00000250: ab43 00bc 5285 1ebc a3e6 2b3d 843f 903d
00000260: a758 843d 17d5 423d 43cc 633c 4716 193c
00000270: e629 713d 2779 663c 1214 8bbc 0b77 32bd
00000280: 8fc1 2cbd 9637 e7bc 6ac2 11bd 2c14 5f3c
00000290: 05be ed3c 276c 9cbc a4cf 703c 6040 f83c
000002a0: e7a9 1d3d 0898 0a3d ade9 9f3c de07 e83b
000002b0: c348 c4bb 2288 bfbb cc08 daba 82f3 ef3a
000002c0: be26 bd3c 984c 283d 6c16 883b 0af5 163a
000002d0: 69c5 2fbc c99e fbbc c20b 00bd 46d0 8abd
000002e0: ed57 9bbd 20fe 37bd 2bfb 7abd 58d1 94bd
000002f0: ff9c 3ebc 701d c4bc 2900 81bd 3ed9 e4bb
00000300: 8447 0e3c c3fc 3f3b e0d7 21bb aafb fcba
00000310: 4b76 5b3b 80ed fd3b c667 223c 0466 a1ba
00000320: 3adb 8a3d 1a46 833d 9548 443d b684 c73c
00000330: e520 0c3b 8341 0ebc 1ad2 8c3c 871a 29bc
00000340: 0290 e5bc 5c62 acbc a91f e2bc 8c0c 93bc
00000350: 1cfa b8bc e731 243c aaa8 e3b9 99d0 68bd
00000360: 4407 a93b fb5d 003d f73e 133d 9af1 463c
00000370: dbcb 683c 9e26 ea3c b4cc 053d 518f 0e3d
00000380: e9e2 363d f197 6b3c 3b8c 003d 1842 1d3d
00000390: 4333 c83c e583 afb9 bea7 35bd ae05 f6bc
000003a0: a09d 95bd 1ca0 3fbd 43a6 b9bd 6d0c 99bd
000003b0: c7d9 3bbd 7d64 b1bc 7c51 fe3c aef5 f8bc
000003c0: bbfb aebd 3918 49bd 88f1 adbb b4d2 2fbc
000003d0: bd8d a0bc d94e 95bc c392 033b d450 ca3c
000003e0: 8d02 583d 492b 7f3d 3e9f 0abd 0b9b f8bc
000003f0: d7ea 14bd 4ee7 68bd bc15 46bd 947a 57bd

fc1.bias f4 [12]
0.03268811 -0.0053097163 -0.022659104 -0.004636809 -0.0055268095 0.031903274 -0.008197535 -0.09474218
0.065529756 0.03710057 0.0051802523 0.005916614
00000000: f8e3 053d 21fd adbb 969f b9bc 60f0 97bb
00000010: 3d1a b5bb 02ad 023d f44e 06bc 3008 c2bd
00000020: 7734 863d c4f6 173d 1bbf a93b 28e0 c13b
