CNN3_checkpoint.pt (torch, 33495 bytes, 5 tensors)

conv1.weight f4 [2, 3, 7, 7]
00000000: 7884 f83d 8e3f bd3c 0062 903d 20c0 ad3d
00000010: 69bb 9e3d 056f 073e bc9f 4c3d 6503 4a3d
00000020: 8c7c 3b3e cc74 1b3e 318d f03d 877b 2b3e
00000030: 0cbc 523e fc71 233e bef7 b83d 8266 303e
00000040: 5968 e13d a944 1d3e e2b3 273e c939 583e
00000050: 4188 093e 4db9 0b3e 9814 563e 54b1 523e
00000060: d9d5 503e 8605 ea3d 33ce 303e eae1 5e3e
00000070: c5fe 413e c367 863e 8b8f 4b3e 72c5 4a3e
00000080: 9dc8 8a3e c8a3 603e b365 033e ce3e 543e
00000090: 61db 293e d1fb 4a3e a333 3c3e 83c6 203e
000000a0: 6aa1 863e c73a 8a3e f5be 3b3e 5133 153e
000000b0: 7e5e 903e 8384 913e c4e3 6a3e 3fba 1e3e
000000c0: 7293 ff3d 5265 113e 0716 cc3d 5675 e43d
000000d0: eac6 1a3e f1c5 f43c e04a 173e 5439 223e
000000e0: e372 833d 4f9b 343e 9687 a63d 2a4e f13d
000000f0: f672 383e 52c8 403e 9888 083e bea7 093d
00000100: 2df2 193e 7fdb 7f3d 2a6c 373e d43a c13d
00000110: f844 8d3d faec ae3d a960 473e 1acc d23d
00000120: 114f ad3d 65ab ee3d 3629 5f3e b0da 473e
00000130: 3607 5f3e a395 7d3e 16a5 913e 897c 533e
00000140: 1e37 953e ad5b 6e3e 8680 763e 00f6 6e3e
00000150: a153 463e 86eb 793e 3711 243e e328 203e
00000160: dae2 883e e4a3 883e a264 363e c730 883e
00000170: 9b0d 173e de18 673e fcb4 933e b424 563e
00000180: 8e6a 263e e2b3 7f3e 4a5c 043d fd38 173c
00000190: aea7 bc3d 8b9a 9e3c f675 533d 88b3 2a3e
000001a0: 3661 143e f882 c63d f1ab 4a3e 5d40 6d3d
000001b0: 8865 183e dad0 2e3e 6d65 823d 6b3f 273e
000001c0: 765d 383e d185 4a3d b0f8 363e 213c 4f3e
000001d0: 8001 b63d 8613 4e3e 3fae 303e 11e9 1f3e
000001e0: c31a d13d 7cc4 163e 7d36 4c3e a0cc df3d
000001f0: a5c6 4e3e 28a5 883d 94e6 623e fb2b 803e
00000200: 3d53 7f3e 28c3 173e 9ba8 1f3e edf7 263e
00000210: 3c98 db3d b1d5 683e 64f0 1c3e 9853 1c3e
00000220: 6ae2 693e b511 953e 1ea9 7d3e c972 6d3e
00000230: 9c2b 6c3e 2119 103e 2e17 1e3e b7a9 883e
00000240: 9c20 723e fdc7 003e a5a7 cb3d 7671 2a3e
00000250: d4f5 2e3e cdb2 e73d aa81 b23d 43e5 173e
00000260: 8df8 573d 6948 873d 18ec b53d 0643 353d
00000270: 8a70 0a3e b4a1 1b3d 043a f83d 77b7 103d
00000280: e195 f5bc 7bd7 283d 0565 36bc df26 bc3d
00000290: fb28 1bbd 1f61 3b39 fa20 5fbd 2cd8 fd3c
000002a0: 97ac fd3d c990 d23d 0632 d93d b4c3 453d
000002b0: 45a8 a1bc f91c f8bc bca6 143d 8e72 7c3c
000002c0: 0e9e be3d a9d4 71bd 5a1a f3bc b2e2 14b9
000002d0: 7584 7fbd 862f e2bc 0639 b1bd fff6 4b3c
000002e0: 3889 94bd 21b7 12be 1574 b0bc 20b5 a2bd
000002f0: 68eb cebd 9203 eb3b 21af b9bc 5923 d6bd
00000300: 22be 12be ab70 16be 9ff4 8dbd 6209 9ebd
00000310: b921 b43c 1883 1b3d a340 e43c 54ea e53d
00000320: 603f 233c 624f 063e 25ba e03d 426f 423c
00000330: 5520 253d 0b5d 0f3e d704 1cbc b3c6 593d
00000340: c0ad 473c 691a bb3c 24ae 1e3e 527d 073e
00000350: bf8a 8bbc 5ea5 f73c c01b 06bc 1e14 51bd
00000360: 36c4 973d 1781 833c 79af bdbc 2978 a0bc
00000370: 4ad9 663d 43a6 35bd 02b5 06bd 3fd3 96bd
00000380: 20d7 993d 568a 8b3d 7d4c 663d c68f 4ebd
00000390: d770 7cbd fd70 a9bc 63c2 9ebd 3fb9 a5ba
000003a0: 70ff b43c 2395 d4bd ce56 c1bd baf7 06be
000003b0: fa14 f3bc 9211 02bd 9b30 b4bd a7d9 08be
000003c0: 82a8 6ebd 3bf5 04be 1562 5abd b504 e3bd
000003d0: a70d 23be d624 2a3e 31d6 2e3e 9c01 633d
000003e0: 6b91 e03c 3dee 9d3d 43ca 063d bc46 583c
000003f0: 6737 fb3d caaa 203e e776 c23d e48d d63d
0.121346414 0.023101594 0.07049942 0.084839106 0.077505894 0.13225944 0.049957022 0.049319644
0.1830923 0.15181273 0.1174568 0.1674634 0.20579547 0.1596145 0.09031628 0.17226604
0.11006231 0.15358223 0.16377214 0.21115793 0.13430883 0.13644905 0.20906293 0.20575458
0.20394076 0.11426835 0.17266159 0.21765867 0.18944843 0.2625104 0.19878976 0.19801882
0.2710618 0.21937478 0.12831764 0.20727083 0.16587593 0.19822623 0.18379073 0.15700726
0.26295024 0.2699797 0.18334563 0.14570357 0.28197092 0.2842141 0.22938448 0.15500735
0.12479295 0.14198807 0.09965139 0.111551926 0.15114942 0.029879542 0.14774656 0.15842181
0.06418397 0.1763737 0.0813133 0.11782487 0.18012604 0.18826416 0.13333356 0.033607237
0.15033789 0.062465187 0.17912355 0.09435049 0.0689792 0.085412934 0.19470467 0.102928355
0.08462346 0.11653785 0.21793064 0.19517016 0.21780095 0.24764113 0.28446263 0.20652975
0.29143614 0.23277159 0.24072465 0.23336029 0.1936784 0.24406251 0.16022192 0.15640597
0.26735574 0.2668754 0.17811826 0.26599714 0.14751284 0.2256808 0.28849018 0.20912439
0.16251585 0.24970964 0.032314576 0.009229896 0.0921167 0.019360801 0.05162617 0.16670048
0.14490208 0.09692949 0.19792153 0.05792271 0.14882481 0.17071858 0.06367002 0.16332786
0.18004403 0.049444024 0.17868304 0.20237781 0.08887005 0.20124635 0.1725397 0.15616252
0.102101825 0.1472339 0.1994266 0.10927701 0.20192964 0.06672126 0.22158271 0.25033554
0.24934097 0.1482054 0.15591662 0.16305514 0.10722396 0.22737767 0.15326077 0.15266263
0.22840276 0.29115072 0.24771544 0.23188318 0.2306351 0.14072086 0.1543853 0.26691982
0.23645252 0.1257629 0.09944085 0.16644844 0.17085963 0.113134004 0.08716138 0.1483355
0.05272727 0.06605608 0.08882922 0.04425337 0.13519493 0.03799601 0.121204406 0.035331216
-0.029978694 0.041221123 -0.011132483 0.091871016 -0.03788088 0.0001786989 -0.05447481 0.030986868
0.123864345 0.10281522 0.10605244 0.04828234 -0.019733557 -0.030287253 0.036291823 0.015408171
0.0930749 -0.0590407 -0.029675651 -0.0001419883 -0.06238218 -0.027610552 -0.086534545 0.012449025
-0.07252735 -0.1432767 -0.021539727 -0.07944703 -0.10103494 0.0071720565 -0.022666516 -0.10455961
-0.14330342 -0.14691417 -0.069314234 -0.077166334 0.021988736 0.037966818 0.027862852 0.11226335
0.00996384 0.1311622 0.10973004 0.011867346 0.040314037 0.14000337 -0.009522638 0.05316801
0.012187421 0.022839742 0.15496117 0.132314 -0.017033933 0.03023022 -0.008185327 -0.051044576
0.07410471 0.016052766 -0.023154961 -0.019588547 0.056359567 -0.044348013 -0.032887466 -0.07364511
0.07511735 0.06813495 0.05622529 -0.05043008 -0.06163105 -0.02068376 -0.0775192 -0.0012643709
0.022094458 -0.10380008 -0.09440385 -0.13180438 -0.029673088 -0.031755038 -0.08798333 -0.13364278
-0.05826617 -0.12984173 -0.053316195 -0.11084882 -0.15923177 0.16615614 0.17073895 0.055421457
0.02741309 0.07711456 0.032907736 0.013200458 0.122664265 0.15690151 0.09495335 0.10476282

conv1.bias f4 [2]
00000000: 93cb 15ba 2c78 4e3e
-0.0005714234 0.2016303

conv2.weight f4 [1, 2, 3, 3]
00000000: 193d 983e d66c 653e d395 803d 908f ce3b
00000010: 9f49 bcbd 1435 d7bd 0f4c febd 5022 2cbe
00000020: a7b7 9ebd 9be5 3cb9 a361 833e 63ac c43e
00000030: 8fce 6b3a caa0 db3e 08f6 983e 94a4 cf3e
00000040: 2974 e53e c99a 953e
0.29734114 0.22404799 0.06278577 0.006303735 -0.091937296 -0.10508171 -0.12416851 -0.16809964
-0.07749873 -0.00018014612 0.25660428 0.3841277 0.0008995318 0.4289611 0.29875207 0.4055525
0.44815186 0.29219654

fc.weight f4 [12, 625]
00000000: 9043 29bd 01cd c23b 748c ee3a ab43 6f3a
00000010: 3260 833c ff7c 993c 2906 7e3b 6fac 403b
00000020: 9ed2 f1bc 01fc 70bd 70ab 06bd 8bbe a43c
00000030: f51e bebc a1b7 b8bb a3f3 ab3c 79cb 38bd
00000040: fe23 243c 7011 d53b 45e8 48bc 931b 9d3c
00000050: d033 02bc 2302 7abc 2886 19bd 452d eebc
00000060: 1122 2d3b d302 bebc c186 07bc fe9b c63c
00000070: 507d 4ebc 84f1 713c 7023 2cbd 87b6 623a
00000080: 330d 86bd 80b9 93bd ce86 eabc dd43 4cbd
00000090: 3a45 84bc f79a eabb 59cc 66bd 3c88 40bd
000000a0: 7552 40bd 9e03 52bd 9bf0 d63c 064d b73a
000000b0: 4218 413c 68d9 563c 3da2 c53c 58f5 bcbb
000000c0: 9676 0f3c 18e1 22bd dc5c 83bc 0495 30bd
000000d0: e146 9bba 55f8 e5bc 78f1 59bd 4611 dcbb
000000e0: 0989 84bc 64cd a1bd ccaf cabc 5e67 aebd
000000f0: 8164 21bd 1a3c 8cbc d179 b3bd d4c0 8bbc
00000100: 844f 75bd 8ea5 f4bc ae19 5abd 78dc cfbc
00000110: 2c9a 7ebc f8f4 cc3a a81d 643c a724 77bc
00000120: f84b 96bc 764e 5ebc a212 35bd 3fa8 cbbb
00000130: 358f cebb 2dd5 e4bb 573b 9bbc 4517 b0bc
00000140: 549c 86bc 30de 13bd 6f04 36bd ac0a a1bd
00000150: 54c8 9bbd 3c5a a3bc fa47 6bbd 4bf3 32bd
00000160: e443 6fbd 4a18 babc e5dc d8bc 6acf 1fbd
00000170: 348a f73b a017 cfbc 6a07 323b 5a18 35bc
00000180: 3464 cbbc ebec b9bc a7f3 4dbd 9e31 ddbc
00000190: 315c c43c bdd3 88bc dd44 023c 8311 ba3c
000001a0: a86f 903b e512 02bd 779a eebc 90ec 9abd
000001b0: 48fb 90bd 37a0 aabd 9678 27bd da19 3dbb
000001c0: 4513 84bd 5152 b7bc 75f4 33bd d97e 44bc
000001d0: 3707 13bb 4f99 4dba ef23 8bbc 3328 613c
000001e0: 30cd 24bc 68f1 82bb 7882 a13c 19e1 bfbc
000001f0: 0e81 163b c339 1cbc a9e2 573b 2cc7 8cbc
00000200: bf2d 5cbd affe 5abc 4b50 68bd 5f1a 8dbd
00000210: 366b 75bd d35d 2ebd 2774 77bc 90c5 01bc
00000220: b81a 2fbd 61ce 5abc ccda 4dbd 23ab 123b
00000230: 827a 53bd 9dce 3e3c 0b70 ba3c fae5 b83c
00000240: 9fe6 42bd af44 33bd 0ba6 4f3a edba 26bd
00000250: 41c8 0bbd c32b 28bd 61ef 2bbd 434d 883c
00000260: 3742 0fbd ba69 84bd 2d87 afbd 690d 8abc
00000270: f43c bbbb c8ac 4cbd f112 9cbd 7a90 da3b
00000280: 4097 adbc 7599 6fbd 1829 d9bc 6de8 59bd
00000290: 4caf 70bd 4745 65bc 12de 633c feaf ef3b
000002a0: 2b3c 31bd a99a 31bd 748a 40bd dd0a 83bc
000002b0: 5dba 293c f682 24bd 676d 78bd fd23 60bd
000002c0: f1c4 08bd c689 70bd e879 95bd f59d c6bc
000002d0: 72cb 96bc a748 26bc d46a fdbc 5c55 9cbd
000002e0: 1a1e f3bc e1af 4cbd ff05 abbc b0ef b2bd
000002f0: 0a1e 11bd b244 a0bd d715 b0bd ab09 4bbc
00000300: 35c4 e2bc b7df b1bb f03e c0ba df64 13bd
00000310: 3893 55bd 365f ef3b 7774 20bd 6d51 41bd
00000320: 57dd 16bd 1bd5 56bd 3ec8 1737 08d5 95bd
00000330: 134c 6fbb fede f5bb fd22 fdbc 87db 6cbd
00000340: ba31 91bd 18e8 75bc f476 23bd 1e52 a5bc
00000350: 683d aabc aecb a4bc 6b05 81bd 835f d1bd
00000360: 0858 22bd 8255 1d3b 039f 83bc f0fa 9dbc
00000370: 7ac9 89bc 6b28 4ebd 68ab f0bc 6c5b 0d3b
00000380: 9513 7b3c 7672 88bc 450a 30bd e436 92bd
00000390: be0c 2cbd be70 c7bc 1e3e 9dbc 8c06 9fbd
000003a0: e51f fdbc adbc 8cbd 5540 e3bb c501 d4bc
000003b0: 0a17 fcbc 209b f9bc 82cf 683c 5c02 883b
000003c0: 876e 39bb 52cd 65bd 4380 04bd 3291 16bd
000003d0: 7923 5abc 3d79 96bc d86d 1cbd 09c4 21bd
000003e0: 95eb a9bb 2843 adbc 1e1f 0abd 5f7b a2bb
000003f0: a4c2 60bc cd80 52bd 09f6 8cbc 054b 063d
-0.0413242 0.0059448485 0.0018199817 0.000912721 0.01603708 0.01873636 0.0038760996 0.0029399653
-0.029519375 -0.05883408 -0.03287834 0.02011039 -0.02320812 -0.0056371246 0.020990198 -0.04511592
0.010018347 0.006502323 -0.012262409 0.019178187 -0.007946923 -0.0152592985 -0.037481457 -0.02907432
0.002641801 -0.023194706 -0.008271874 0.024244305 -0.012603119 0.0147670545 -0.042025983 0.00086484145
-0.06545486 -0.07213116 -0.028628733 -0.049869407 -0.016146291 -0.0071595865 -0.056347225 -0.047004923
-0.046953637 -0.05127298 0.026237777 0.0013984747 0.011785569 0.013113357 0.024125213 -0.005766552
0.0087563 -0.039765447 -0.01603549 -0.043110862 -0.0011846685 -0.028072516 -0.0532088 -0.0067159263
-0.016178625 -0.07900503 -0.02474203 -0.085158095 -0.03940249 -0.017118502 -0.08763469 -0.017059721
-0.059890285 -0.029864099 -0.053247146 -0.025373682 -0.015539687 0.0015636971 0.013923086 -0.015084422
-0.018346772 -0.013568511 -0.044207223 -0.006215125 -0.0063036927 -0.0069834203 -0.018949194 -0.02149547
-0.016431965 -0.036100566 -0.044437822 -0.078633636 -0.07606569 -0.019940488 -0.05744169 -0.043689054
-0.058414355 -0.02271666 -0.026472518 -0.039016165 0.007554317 -0.02527982 0.0027165064 -0.011053169
-0.024828054 -0.02269598 -0.050281193 -0.027001198 0.023969742 -0.016702527 0.007950989 0.022713428
0.0044078417 -0.0317563 -0.029126389 -0.07564652 -0.07079178 -0.0833134 -0.040886484 -0.002885452
-0.06448988 -0.022378119 -0.043934304 -0.011993133 -0.002243472 -0.0007842974 -0.016984908 0.013742494
-0.010058686 -0.003996063 0.019715533 -0.023422765 0.0022965106 -0.009535256 0.0032941496 -0.017184816
-0.053754564 -0.013366385 -0.0567172 -0.068897955 -0.059916697 -0.042569946 -0.0151033765 -0.007920638
-0.04275009 -0.013354869 -0.05025749 0.0022379837 -0.051630504 0.01164594 0.022758504 0.022570599
-0.04758322 -0.043766674 0.00079211657 -0.04070561 -0.034126524 -0.04105736 -0.041976336 0.016638404
-0.034975257 -0.06465478 -0.085707046 -0.016852098 -0.0057140533 -0.049969465 -0.076208 0.006670055
-0.021190286 -0.058495957 -0.026508853 -0.053200174 -0.058760926 -0.013993568 0.013907926 0.007314681
-0.04327027 -0.043360386 -0.04700704 -0.015996391 0.010359374 -0.040163957 -0.06065121 -0.05472182
-0.033390943 -0.05872514 -0.072986424 -0.024245242 -0.018407557 -0.010149158 -0.030934729 -0.076334685
-0.02967744 -0.04997242 -0.020876883 -0.08737123 -0.035429038 -0.078256026 -0.085979156 -0.012392442
-0.02768145 -0.00542828 -0.0014667194 -0.03598487 -0.052142352 0.007305051 -0.03917357 -0.047196794
-0.03683218 -0.052449327 9.046924e-06 -0.07316023 -0.003651385 -0.0075033894 -0.030900473 -0.057826545
-0.07089563 -0.015008949 -0.039908364 -0.020180758 -0.020781234 -0.020116653 -0.062998615 -0.102232955
-0.039634734 0.0024007265 -0.016067034 -0.019284695 -0.016819704 -0.050331514 -0.029378608 0.0021569384
0.015324493 -0.016656142 -0.042978544 -0.07139376 -0.04200434 -0.024345752 -0.019194659 -0.077649206
-0.030898998 -0.068719245 -0.006935159 -0.02587975 -0.030772705 -0.030469477 0.01420963 0.004150672
-0.002829464 -0.05610401 -0.032348882 -0.036759563 -0.013314121 -0.018368358 -0.038190693 -0.039493594
-0.0051855543 -0.021150187 -0.033721082 -0.0049585546 -0.013718281 -0.051392365 -0.017207162 0.032786388

fc.bias f4 [12]
00000000: 840e 97ba 4daa 8cbc d732 923c e68e 54bc
00000010: 4514 b13c 3575 4f3d 5e0f 23bc 163b 173d
00000020: c195 54bd 50e5 15ba 32c2 2a3d dde6 823c
-0.0011524712 -0.01717105 0.017846508 -0.012973523 0.02161611 0.050648887 -0.009952394 0.036921583
-0.05190063 -0.0005718069 0.041689105 0.015979225
