CNN4_checkpoint.pt (torch, 854751 bytes, 7 tensors)

conv1.weight f4 [2, 3, 3, 3]
0	0xbca7deba	-0.020491946
1	0xbd52a859	-0.05143008
2	0xbb93b968	-0.004508186
3	0x3ed5497b	0.41657624
4	0x3e97e6c8	0.2966826
5	0x3e86baac	0.26314294
6	0x3ebd02b4	0.36916125
7	0x3eadd52b	0.33951697
8	0x3e421395	0.18952782
9	0x3dacfd97	0.08446806
10	0x3e04fb5d	0.12986512
11	0xbd4ae9cd	-0.049539376
12	0x3dc790a3	0.09744384
13	0x3eb8df8c	0.36108053
14	0x3e880d3c	0.26572597
15	0x3eb1be21	0.3471537
16	0x3eb91e21	0.361558
17	0x3e30a534	0.1725052
18	0x3e3947d1	0.18093802
19	0x3d8d8c2e	0.06911503
20	0x3df42aaa	0.119222
21	0x3eff2aa3	0.49837217
22	0x3ee8baa7	0.45454904
23	0x3d9194bf	0.07108449
24	0x3ea3a6f6	0.3196332
25	0x3eca44a1	0.39505485
26	0x3e60462d	0.2190177
27	0xbcd4d56b	-0.025980672
28	0xbdd614eb	-0.104532085
29	0x3e194339	0.1496705
30	0xbe254a42	-0.16141608
31	0x3e5e31d5	0.21698697
32	0x3e92af93	0.28649577
33	0xbda0c0e3	-0.0784929
34	0xbe21e45e	-0.15809771
35	0x3e441b4b	0.19151036
36	0xbe20e546	-0.15712461
37	0xbd47a236	-0.04873868
38	0x3e5c965d	0.21541734
39	0xbc4a7c9f	-0.012358814
40	0x3e8e41a2	0.2778445
41	0x3e2613a4	0.1621843
42	0xbe007544	-0.12544733
43	0xbd196291	-0.037447516
44	0x3e0ace31	0.13555218
45	0xbd2e33c7	-0.042529847
46	0x3df9dcee	0.12200342
47	0x39aa7204	0.00032509875
48	0x3ddc0739	0.10743565
49	0x3ea41c1d	0.320527
50	0x3e24b11c	0.16083187
51	0x3dc24aae	0.094869
52	0x3d1ccb97	0.038280096
53	0x3e8bc268	0.27296758

conv1.bias f4 [2]
0	0xbda651a6	-0.08121042
1	0xbe20f651	-0.15718962

conv2.weight f4 [1, 2, 3, 3]
0	0xbe5aa865	-0.213533
1	0xbe33c296	-0.17554697
2	0x3d8987f9	0.06715388
3	0x3e812cb0	0.25229406
4	0x3eb2e610	0.3494115
5	0x3b83e41f	0.004024997
6	0xbd8b158a	-0.067912176
7	0x3e5a69e5	0.21329458
8	0x3e8c2d1e	0.27378172
9	0x3e2f1d70	0.17101073
10	0x3e81e67f	0.25371167
11	0x3d62fcc8	0.055416852
12	0x3ebe570f	0.37175795
13	0x3e665677	0.22493921
14	0xbe4d217f	-0.20032309
15	0x3f0ab25b	0.541784
16	0x3f056796	0.52111185
17	0x3d1f00c7	0.0388191

fc1.weight f4 [100, 2116]
0	0x80007cf5	-4.4826e-41
1	0xa1a583ec	-1.1215754e-18
2	0xa90b228c	-3.0894165e-14
3	0xaa5bf4d1	-1.9536045e-13
4	0xac154a18	-2.1215304e-12
5	0xaf1c6eee	-1.4227527e-10
6	0xb1b872d3	-5.368159e-09
7	0xb383b036	-6.1322154e-08
8	0xb42f7f72	-1.634451e-07
9	0xb5e1be4f	-1.6819193e-06
10	0xb6c8dff7	-5.9865374e-06
11	0x36dcbfe8	6.5788518e-06
12	0xb7e0bf27	-2.6791893e-05
13	0xb7ba8b16	-2.2237695e-05
14	0xb7435bc0	-1.1644268e-05
15	0x3643a7bc	2.9154899e-06
16	0xb686f2cc	-4.0217765e-06
17	0xb6963fd8	-4.4777807e-06
18	0xb68c4d8d	-4.1813532e-06
19	0xb639ead2	-2.7703832e-06
20	0xb702bb3b	-7.792197e-06
21	0xb6af800d	-5.2303135e-06
22	0xb6aa7e5b	-5.0811045e-06
23	0xb6a3007d	-4.8578354e-06
24	0xb67fa3df	-3.8093347e-06
25	0xb6f4e5b0	-7.298506e-06
26	0xb690cd88	-4.3154614e-06
27	0xb60d54d6	-2.1060018e-06
28	0xb537f4d7	-6.85291e-07
29	0xb4d92fa7	-4.045407e-07
30	0xb4fe79e5	-4.7399877e-07
31	0xb5c5f4ba	-1.4748869e-06
32	0xb60e4b10	-2.120334e-06
33	0xb702e2c6	-7.801404e-06
34	0xb726ddb6	-9.945992e-06
35	0xb7423cae	-1.1577429e-05
36	0xb73eadac	-1.1365319e-05
37	0x3399c509	7.160458e-08
38	0xb3fe86b8	-1.1852302e-07
39	0xb4bb9bb1	-3.4944745e-07
40	0xb405e869	-1.247114e-07
41	0xb10b93bc	-2.031114e-09
42	0xafb9aca4	-3.3773973e-10
43	0xadea7eb5	-2.665899e-11
44	0xacf272ac	-6.890785e-12
45	0xafcd0e87	-3.7299605e-10
46	0x80001667	-8.036e-42
47	0x932325c9	-2.0592122e-27
48	0x95aed47b	-7.0613275e-26
49	0x1a639d7e	4.706972e-23
50	0xaa53e54d	-1.882012e-13
51	0x2e3b2c1b	4.255805e-11
52	0xb1eb86d5	-6.854729e-09
53	0xb426fcf1	-1.5551974e-07
54	0xb6435628	-2.9107414e-06
55	0xb6e97464	-6.9574908e-06
56	0xb77641d7	-1.4678072e-05
57	0xb7401824	-1.14497125e-05
58	0xb79a2954	-1.8377475e-05
59	0xb7950713	-1.7765478e-05
60	0xb7270c9e	-9.956913e-06
61	0xb76292eb	-1.3504857e-05
62	0xb613e9ad	-2.2040724e-06
63	0xb63748e5	-2.7311555e-06
64	0xb651d0bc	-3.1264926e-06
65	0x35fdf220	1.8920437e-06
66	0xb69420a8	-4.4145454e-06
67	0xb6c8abed	-5.9804793e-06
68	0xb69a5b0e	-4.600158e-06
69	0xb5c4347d	-1.4618414e-06
70	0xb6abf989	-5.125247e-06
71	0xb5aa3bf9	-1.2683441e-06
72	0xb595d3d4	-1.1163015e-06
73	0xb5eda183	-1.7704882e-06
74	0xb59bdb7d	-1.1612279e-06
75	0x351a6238	5.75124e-07
76	0xb6194324	-2.2837858e-06
77	0xb6b9323a	-5.519277e-06
78	0xb7085fbc	-8.128522e-06
79	0xb669c8c6	-3.483657e-06
80	0xb7943a47	-1.7670112e-05
81	0xb539c505	-6.920457e-07
82	0xb6701362	-3.577407e-06
83	0xb4e7a578	-4.3147497e-07
84	0xb474c943	-2.279749e-07
85	0xb18e3fb6	-4.139987e-09
86	0xb083300a	-9.545158e-10
87	0xa9510164	-4.640853e-14
88	0xa9f6f58a	-1.0967189e-13
89	0xa9c0d1a6	-8.562881e-14
90	0xa82ea325	-9.694317e-15
91	0x9ddb0d7e	-5.7982768e-21
92	0x8fc0a567	-1.8996372e-29
93	0xaa1f4fe6	-1.4149757e-13
94	0xa959d79f	-4.83707e-14
95	0xa96abfc9	-5.2124785e-14
96	0xada88603	-1.9158902e-11
97	0x30ca2a65	1.4709484e-09
98	0xb38d2df9	-6.5741865e-08
99	0xb65831c3	-3.2215473e-06
100	0x36841426	3.936252e-06
101	0xb86ca36c	-5.6418983e-05
102	0xb7bb7607	-2.2347098e-05
103	0xb8c05249	-9.1706e-05
104	0x36c295aa	5.7990737e-06
105	0xb8905e38	-6.884005e-05
106	0xb7d5100e	-2.5399055e-05
107	0xb7eadeae	-2.7998667e-05
108	0xb7ddb3c7	-2.6428968e-05
109	0xb7dd6630	-2.6392838e-05
110	0xb7cc957f	-2.438831e-05
111	0xb8a9d8fd	-8.098965e-05
112	0xb821ca98	-3.857407e-05
113	0xb82dd6c8	-4.1446445e-05
114	0xb81e2ec5	-3.7713693e-05
115	0xb7c1900b	-2.3074468e-05
116	0xb6938e89	-4.3975347e-06
117	0xb753e64d	-1.2630201e-05
118	0xb72c7fe1	-1.0281773e-05
119	0xb782b811	-1.558292e-05
120	0xb745ebd3	-1.1797022e-05
121	0xb7d959c6	-2.591022e-05
122	0xb647403b	-2.9690698e-06
123	0xb807945f	-3.232469e-05
124	0xb7ffd352	-3.0496773e-05
125	0xb8a7cd15	-8.00138e-05
126	0xb814fcae	-3.5521276e-05
127	0xb808e926	-3.2642063e-05
128	0xb7dea91d	-2.6543212e-05
129	0xb6ae83dd	-5.200955e-06
130	0xb69053ea	-4.3013033e-06
131	0xb5b00cf0	-1.3116787e-06
132	0xb4c85255	-3.7312807e-07
133	0xb10b6259	-2.0283066e-09
134	0xb035de60	-6.616343e-10
135	0x2e33bf43	4.0869762e-11
136	0xaf5065c3	-1.8953643e-10
137	0x97932a22	-9.510288e-25
138	0xa88ad5bd	-1.5413772e-14
139	0xaf94e74e	-2.7085395e-10
140	0xb07d2ad9	-9.2101754e-10
141	0xb05ce9c5	-8.036774e-10
142	0xb29b4a1d	-1.8078078e-08
143	0xb49e2859	-2.945915e-07
144	0xb4a1e650	-3.015616e-07
145	0xb6b4b797	-5.3857907e-06
146	0xb7410d27	-1.1506759e-05
147	0xb80aca88	-3.3090386e-05
148	0x3762b9a8	1.3513876e-05
149	0xb8976185	-7.2184055e-05
150	0xb8a6bc23	-7.95054e-05
151	0xb82d4815	-4.1313546e-05
152	0xb80b4781	-3.3206776e-05
153	0xb785f79f	-1.5970143e-05
154	0xb84bf689	-4.8628575e-05
155	0xb7ddd8b1	-2.6446158e-05
156	0xb8822638	-6.206002e-05
157	0xb867792e	-5.518755e-05
158	0xb893601d	-7.027409e-05
159	0xb8776fcc	-5.8993508e-05
160	0xb868ec6e	-5.5533303e-05
161	0xb8904179	-6.87865e-05
162	0xb8446623	-4.6825164e-05
163	0xb82e2b31	-4.1525058e-05
164	0xb7e6227d	-2.7434196e-05
165	0x36549241	3.1675593e-06
166	0xb77a4e76	-1.4919429e-05
167	0xb84e7567	-4.9223567e-05
168	0x36acb31b	5.14685e-06
169	0xb8a58d12	-7.8940895e-05
170	0xb92ca16e	-0.00016463335
171	0xb8da0581	-0.00010396075
172	0xb8d74a67	-0.000102658574
173	0xb8dec76b	-0.000106229294
174	0xb854ab71	-5.0704406e-05
175	0xb80ca492	-3.353187e-05
176	0xb73f0446	-1.1385482e-05
177	0xb61a1d74	-2.2964932e-06
178	0xb60e98a2	-2.1248493e-06
179	0xb396c2c1	-7.020345e-08
180	0xb373b18f	-5.6739335e-08
181	0xb352ffe2	-4.912716e-08
182	0xb28bb819	-1.6265448e-08
183	0xaa7878b0	-2.2068697e-13
184	0xb010c36f	-5.266462e-10
185	0xb5970bc8	-1.1253805e-06
186	0xb5472864	-7.4192053e-07
187	0xb597f821	-1.1322592e-06
188	0xb5cea106	-1.539506e-06
189	0xb67e0ed6	-3.7857585e-06
190	0x36255824	2.463822e-06
191	0xb7fbf27d	-3.0034449e-05
192	0xb86db712	-5.66757e-05
193	0xb83d49c7	-4.5129822e-05
194	0xb9a1177b	-0.00030725807
195	0xb90fedf7	-0.00013726192
196	0xb9407c54	-0.00018356863
197	0xb86fd7e4	-5.7183104e-05
198	0xb928f3b2	-0.00016112512
199	0xb82f19d3	-4.1747302e-05
200	0xb837872c	-4.375649e-05
201	0xb88a4b31	-6.594358e-05
202	0xb9148b9d	-0.0001416639
203	0xb8aaeb2c	-8.150036e-05
204	0xb92c60c6	-0.00016439249
205	0xb900c5af	-0.00012280674
206	0xb978d82a	-0.0002373165
207	0x388b2bfa	6.636228e-05
208	0xb8770527	-5.8894188e-05
209	0xb8f863a2	-0.000118441196
210	0xb833f3c7	-4.290396e-05
211	0xb8a29da2	-7.754123e-05
212	0xb832e3fc	-4.2650834e-05
213	0xb8bc43e2	-8.977183e-05
214	0xb8d4c142	-0.00010144945
215	0xb8f93924	-0.000118838885
216	0xb9235c45	-0.00015579264
217	0xb947de3d	-0.00019060909
218	0xb8e177cf	-0.00010751152
219	0xb8acd144	-8.240578e-05
220	0xb9297e49	-0.00016164141
221	0x384e2d45	4.9156388e-05
222	0xb8853061	-6.3509455e-05
223	0xb720c32a	-9.582183e-06
224	0xb766b7fc	-1.37519055e-05
225	0xb6ef0c11	-7.1241598e-06
226	0xb63a88c1	-2.779576e-06
227	0xb5b6b4c9	-1.3612672e-06
228	0xb61d1b4d	-2.3410714e-06
229	0xb216b484	-8.772194e-09
230	0xaf99c30a	-2.7969121e-10
231	0xb56b5f7d	-8.7683276e-07
232	0xb583c71d	-9.81821e-07
233	0xb4c98c28	-3.7541145e-07
234	0xb62eec53	-2.606558e-06
235	0xb6e7ac24	-6.9043763e-06
236	0xb6fde120	-7.5661956e-06
237	0xb760ecb9	-1.3406557e-05
238	0xb88f65c5	-6.8377274e-05
239	0xb8cdf066	-9.8199394e-05
240	0xb87cf8ce	-6.03132e-05
241	0xb8f1ae1d	-0.00011524207
242	0xb9397733	-0.0001768738
243	0xb9bbaefd	-0.00035797796
244	0xb915f5bc	-0.0001430129
245	0xb90f2a66	-0.00013653337
246	0xb84bdb7d	-4.8603386e-05
247	0xb86bb045	-5.619253e-05
248	0xb89d9159	-7.5134165e-05
249	0xb7cb5370	-2.423834e-05
250	0x344dfee5	1.9184843e-07
251	0xb8847f56	-6.317969e-05
252	0xb8b89682	-8.801838e-05
253	0x37eb6ef7	2.8065855e-05
254	0xb8e10909	-0.00010730519
255	0xb8248af6	-3.9230064e-05

fc1.bias f4 [100]
0	0xb9a50f1b	-0.00031482507
1	0x3e8c4ab7	0.27400753
2	0xb5c99943	-1.5020272e-06
3	0xb308bc70	-3.183635e-08
4	0xb4769465	-2.2964521e-07
5	0x9eb603f8	-1.9271641e-20
6	0x3eb2c8eb	0.34918913
7	0xb3d61e5c	-9.970674e-08
8	0xbd8a7b85	-0.06761841
9	0x3e253de4	0.1613689
10	0xbdd2bd03	-0.102899574
11	0x3c5d30f8	0.013500445
12	0xb7b8fca8	-2.2052162e-05
13	0xbd224066	-0.039612196
14	0x3ed8dfe8	0.42358327
15	0xb284ea40	-1.5473347e-08
16	0x3da6aedd	0.08138821
17	0x3db31428	0.08744079
18	0x3e2bb510	0.16768289
19	0x814fef2b	-3.819149e-38
20	0xbdaa8b10	-0.08327305
21	0x3e3d6905	0.18497093
22	0xa4ca9a92	-8.786539e-17
23	0x3eaaee26	0.33384818
24	0x3e63f45f	0.22261189
25	0x3887c30e	6.4736334e-05
26	0xbddb415d	-0.107058264
27	0x3ebf9e2d	0.37425366
28	0x3deb86b7	0.11500304
29	0x3e854a68	0.2603333
30	0xaceac241	-6.6722465e-12
31	0x3c87d140	0.01657927
32	0x3e019304	0.12653738
33	0xb5dd1f7c	-1.6474946e-06
34	0x3da922aa	0.08258565
35	0xb5777079	-9.217834e-07
36	0xb93038d8	-0.00016805844
37	0xa7a3d567	-4.547296e-15
38	0xaaf248de	-4.3038397e-13
39	0xbd63d90e	-0.05562692
40	0xbc87d475	-0.0165808
41	0x3f383a9a	0.7196442
42	0xb3ca1972	-9.4109865e-08
43	0x3f06366d	0.524268
44	0x3df000bf	0.11718892
45	0xafff6047	-4.645264e-10
46	0x3bae7f7c	0.005325256
47	0x3f0a4974	0.5401833
48	0xb7905c0c	-1.7209e-05
49	0x3e71a1b4	0.23596841
50	0x3ea6c310	0.32570696
51	0x3e467ac2	0.19382766
52	0x3d29f779	0.041495774
53	0xb92d8301	-0.00016547368
54	0xb6c5a943	-5.890762e-06
55	0x9afb3c9c	-1.03909087e-22
56	0xb8a82ed6	-8.019588e-05
57	0xbab986b6	-0.0014154527
58	0xbd875e91	-0.06609834
59	0xb7c5fcb4	-2.3601904e-05
60	0x3eb8513a	0.3599947
61	0xbd31e9e7	-0.043435957
62	0x3db5f230	0.08884084
63	0x3d4cc956	0.049996696
64	0x3c9c80c4	0.019104369
65	0x3de50159	0.11181898
66	0xbaea1305	-0.0017858451
67	0x3ba91c7f	0.0051608677
68	0xb7aa4871	-2.0299312e-05
69	0xb34a05b6	-4.7036984e-08
70	0xb3a44a0c	-7.650314e-08
71	0x3f12ff63	0.5742094
72	0x3e8f7fef	0.28027293
73	0xb52da3ac	-6.4685696e-07
74	0x3de10c37	0.10988658
75	0xb23d96fb	-1.1035577e-08
76	0xaa6c62de	-2.0995312e-13
77	0x3ddad7e7	0.10685711
78	0x9fc20e24	-8.218559e-20
79	0x3c93ac31	0.018026443
80	0xb24a15b1	-1.176288e-08
81	0x3e6176d8	0.22017992
82	0x3e4cdeb5	0.20006831
83	0xbd96e16e	-0.07367216
84	0x3ed47a2f	0.4149947
85	0x3e32ddf4	0.17467481
86	0x3daf7bea	0.085685566
87	0x90c5c472	-7.800547e-29
88	0xb7519101	-1.2491132e-05
89	0xbda97786	-0.082747504
90	0xb22bf408	-1.0008996e-08
91	0xb2ca6d77	-2.3565674e-08
92	0xb41f61cf	-1.4843611e-07
93	0xa2f8ee46	-6.7472817e-18
94	0xb25f3bcf	-1.2993907e-08
95	0xbc11d697	-0.00890126
96	0xbc605e97	-0.013694427
97	0xb3cb575f	-9.468817e-08
98	0xb0a85448	-1.2247563e-09
99	0x3e3ba8e5	0.18326147

fc2.weight f4 [12, 100]
0	0xb85f4554	-5.323191e-05
1	0xbca95574	-0.02067063
2	0x80006d95	-3.931e-41
3	0x88202cda	-4.820097e-34
4	0x00001a92	9.532e-42
5	0x000018cd	8.897e-42
6	0x3c2b9842	0.010473313
7	0xb6017103	-1.928828e-06
8	0xbd0f23b0	-0.034946144
9	0xbb1121e8	-0.0022145454
10	0x3dc9e35f	0.09857821
11	0xbdaf4c35	-0.08559457
12	0x80006548	-3.6333e-41
13	0x3dbc9ffc	0.09210202
14	0xbe823f29	-0.25438812
15	0xb1339544	-2.6132776e-09
16	0x3dbdd73e	0.0926957
17	0x3ca4da2e	0.020123567
18	0x3db92516	0.09040277
19	0x39dc08d2	0.00041968242
20	0xbca3593a	-0.019940007
21	0x3b83c3eb	0.004021158
22	0x80009ed7	-5.6981e-41
23	0xbe427722	-0.18990758
24	0xbd865e48	-0.065609515
25	0xbd7eb60a	-0.062185325
26	0x3d5bc919	0.05365858
27	0xbdeb1feb	-0.11480697
28	0xbc6c63c6	-0.014428085
29	0xbd40f3cd	-0.047107507
30	0x00007655	4.245e-41
31	0xbc713ac2	-0.014723482
32	0xbd0fac60	-0.0350765
33	0x80006bd0	-3.8676e-41
34	0xbd168e49	-0.036756787
35	0x966a689d	-1.893538e-25
36	0x3d2916be	0.041281454
37	0x8306b305	-3.9584565e-37
38	0x80008a59	-4.963e-41
39	0x3de8a9f0	0.11360538
40	0xbc097f16	-0.008392116
41	0xbe696d9f	-0.22795723
42	0x90e3ccf1	-8.9851475e-29
43	0xbebfdbc2	-0.3747235
44	0xbd59676e	-0.053077154
45	0x80007cfd	-4.4837e-41
46	0x3d592d73	0.05302186
47	0xbe9b3179	-0.30311182
48	0xb884a61e	-6.325192e-05
49	0x3c3de776	0.011590829
50	0xbcea7bc6	-0.028623473
51	0xbd20620b	-0.039156
52	0xbc6af52b	-0.014340679
53	0xb1ae9e22	-5.082044e-09
54	0x0000a88b	6.0462e-41
55	0x80006cf1	-3.9081e-41
56	0x34b2416f	3.3202693e-07
57	0xbd1c5076	-0.03816267
58	0xbc2134a4	-0.009839211
59	0xab2411d5	-5.828925e-13
60	0x3ceff337	0.029290779
61	0xbda5320c	-0.08066186
62	0xbd0e76d4	-0.034781292
63	0x3cb63297	0.02224092
64	0x3c1d9d07	0.009619958
65	0xbc8850f1	-0.016640158
66	0x3d8ae594	0.0678207
67	0x3d970112	0.07373251
68	0x8000818a	-4.647e-41
69	0xb216231f	-8.739135e-09
70	0x2d37ab49	1.0440379e-11
71	0xbe859984	-0.26093686
72	0xbe4c214d	-0.19934578
73	0x3735feae	1.0847738e-05
74	0xbda70aae	-0.08156334
75	0x1d4ba3d6	2.6951527e-21
76	0x394eba56	0.00019715106
77	0x3d060ba8	0.03272596
78	0x8000928f	-5.2575e-41
79	0xbd88090d	-0.06642351
80	0x00006aed	3.8358e-41
81	0xbe285c32	-0.1644142
82	0xbdb222ba	-0.0869803
83	0xbcbe2782	-0.023212198
84	0xbe7c2f27	-0.24627362
85	0xbd00859a	-0.031377412
86	0xbd893d99	-0.06701202
87	0x0000730d	4.1272e-41
88	0x8000ac96	-6.1912e-41
89	0x3d8ed70e	0.06974612
90	0x1997eafc	1.5707943e-23
91	0x363958a4	2.7618744e-06
92	0x000038f5	2.0432e-41
93	0x000081b6	4.6532e-41
94	0x161e3940	1.2781203e-25
95	0x3b8d689d	0.0043154494
96	0x3dd84437	0.10559886
97	0x91127e08	-1.1556206e-28
98	0x80003e43	-2.2335e-41
99	0xbddf1af0	-0.1089381
100	0x90cbf704	-8.044997e-29
101	0x3bc6ec07	0.006070617
102	0x2268dba7	3.1558146e-18
103	0x9bb77b8f	-3.0354658e-22
104	0x00004556	2.4873e-41
105	0x00007242	4.0988e-41
106	0x3d91f244	0.071262866
107	0x352f05d2	6.520105e-07
108	0x3d971feb	0.07379135
109	0x3b87f4d0	0.004149057
110	0xbda43935	-0.08018724
111	0x3d3e4b22	0.04645837
112	0x2af7c393	4.401172e-13
113	0x3d10f002	0.03538514
114	0x3dce5883	0.10075476
115	0x20bc97b0	3.1948817e-19
116	0xbddec8f9	-0.10878176
117	0xbcc4a889	-0.024006145
118	0x3d6867f4	0.056739762
119	0x80001465	-7.316e-42
120	0xbc131819	-0.008977913
121	0xbc91c6b8	-0.017794952
122	0x00004c97	2.7475e-41
123	0xbbf12a26	-0.007359761
124	0xbd92a397	-0.071601085
125	0x3d5511a6	0.052018784
126	0xbd61fb31	-0.055171195
127	0x3d673d4f	0.056454953
128	0xbce5eb7b	-0.028066387
129	0x3c240a0a	0.010012159
130	0x800090ea	-5.1985e-41
131	0x3b476eb8	0.0030430984
132	0xbd036807	-0.03208163
133	0x00005c87	3.3193e-41
134	0xbe018cfa	-0.12651435
135	0x2fc02b15	3.4955208e-10
136	0x3d839441	0.064247616
137	0x80007c5c	-4.4612e-41
138	0x0000bdcb	6.8085e-41
139	0xbe1418e8	-0.14462626
140	0xbdafeb1b	-0.08589765
141	0x3c8a00ca	0.01684608
142	0x27e7f88c	6.4384855e-15
143	0xbaa84093	-0.0012836627
144	0xbb982278	-0.004642781
145	0x1c010f8e	4.2702624e-22
146	0xbca8f40b	-0.020624181
147	0x3cc53549	0.02407326
148	0xa4c77cf8	-8.65142e-17
149	0x38c830a1	9.545801e-05
150	0x3d81ee6b	0.06344303
151	0x3998326e	0.00029029272
152	0x3ccbacb8	0.024862632
153	0x3007a552	4.934765e-10
154	0x2670062e	8.32751e-16
155	0x8000a26d	-5.8267e-41
156	0x3794aa1f	1.7722194e-05
157	0x3d2bf3bf	0.0419805
158	0xbe86bac8	-0.26314378
159	0xb430921f	-1.6444436e-07
160	0x3dae9596	0.08524625
161	0x3cb894a3	0.022531813
162	0xbe0f71a5	-0.14008196
163	0x3cfb07ae	0.03064331
164	0x3d9c6ecb	0.076383196
165	0xbdc93047	-0.09823661
166	0x3c0795e4	0.008275483
167	0x3cddbcf6	0.027067643
168	0x12af11d8	1.10484515e-27
169	0x29beee9a	8.479086e-14
170	0xa99597fc	-6.643294e-14
171	0x3da8d038	0.082428396
172	0xbdc67de3	-0.0969198
173	0x0000ab3e	6.143e-41
174	0x3e07863e	0.13234803
175	0xb503e5a0	-4.913545e-07
176	0xb74db2c3	-1.2260573e-05
177	0xbcc01dad	-0.02345165
178	0x80001ef1	-1.11e-41
179	0xbd8d0232	-0.06885184
180	0x80005351	-2.9888e-41
181	0xbd1c2e87	-0.03813031
182	0x3c5df49e	0.013547091
183	0xbdbac253	-0.09119096
184	0xbcfe1181	-0.031014206
185	0x3df3ed5c	0.11910507
186	0x3d61adff	0.055097576
187	0x800084a5	-4.7584e-41
188	0x00004d2c	2.7684e-41
189	0xbdea3437	-0.114357404
190	0xa425ad8e	-3.5925678e-17
191	0x2faaa01e	3.103659e-10
192	0x00009c30	5.603e-41
193	0x800006b7	-2.409e-42
194	0x358a3d7b	1.0299694e-06
195	0x3dfa646b	0.122261845
196	0x3d78385f	0.060600635
197	0xa02d1a09	-1.4662284e-19
198	0x800069c8	-3.7947e-41
199	0xbd5b89f7	-0.05359837
200	0xbcd66b51	-0.02617422
201	0xbd0b22e3	-0.033968817
202	0xb23767f5	-1.0675639e-08
203	0x2884aac6	1.4729005e-14
204	0x000036ee	1.9705e-41
205	0x0000c378	7.0121e-41
206	0xbc80a18b	-0.01570203
207	0x00002bd9	1.573e-41
208	0xbce5151a	-0.027964164
209	0xbd055dd0	-0.03256017
210	0x3d1cd8b6	0.03829261
211	0x3bbd72a4	0.0057814885
212	0x35a41fe0	1.2228229e-06
213	0xbdbbf5f3	-0.091777705
214	0xbd0ec64c	-0.03485708
215	0x979f4d1a	-1.0294597e-24
216	0x3dafcf1d	0.085844256
217	0x3d4a3cc4	0.049374357
218	0xbe027b0b	-0.1274225
219	0x38b5f501	8.676388e-05
220	0x3d6e9136	0.058243953
221	0xbd70b985	-0.058770675
222	0x00007e36	4.5276e-41
223	0xbca69b40	-0.0203377
224	0xbd5350b3	-0.051590633
225	0x3db53c21	0.08849359
226	0xbe045cdf	-0.12926053
227	0xbdd4d977	-0.103930406
228	0x3d312a10	0.043253005
229	0xbcad2e1d	-0.021140153
230	0x8000b495	-6.478e-41
231	0x3b20c2c0	0.0024530143
232	0x3de2648e	0.110543355
233	0x800082bb	-4.6897e-41
234	0xbe24b363	-0.16084056
235	0xb58819de	-1.0140318e-06
236	0x3d6a4b3e	0.057200663
237	0x0000373a	1.9812e-41
238	0x80008add	-4.9815e-41
239	0xbb85160e	-0.004061467
240	0x3d0eaae3	0.03483094
241	0xbe0c9c2c	-0.1373145
242	0x00003626	1.9425e-41
243	0xbe503e0d	-0.2033617
244	0xbdb7911b	-0.089632235
245	0x263d5de7	6.569981e-16
246	0x3d05b904	0.032647148
247	0xbdaba83e	-0.08381699
248	0xbc1f2829	-0.009714165
249	0xbe1a86c1	-0.15090467
250	0xbd3bf5c2	-0.04588867
251	0xbceb465a	-0.02872007
252	0x3dbd5a5d	0.09245751
253	0x97b6869b	-1.1795454e-24
254	0x2a382a25	1.6357105e-13
255	0x0000343f	1.8742e-41

fc2.bias f4 [12]
0	0x3d8e63d0	0.069526315
1	0x3d1b2668	0.037878424
2	0x3df37c5c	0.11888954
3	0x3d4fd276	0.05073782
4	0xbe44c715	-0.19216569
5	0xbdf5de41	-0.12005282
6	0xbcb4956f	-0.022043912
7	0x3e05422b	0.13013522
8	0xbe33dbce	-0.17564318
9	0xbb824a2a	-0.003976126
10	0x3e37efcd	0.1796257
11	0xbe4555a2	-0.19270948
