pre_trained_model3.pt (torch, 304691 bytes, 7 tensors)

conv1.weight f4 [2, 3, 3, 3]
000000 6a cb 41 3e f4 44 11 bd 3e ec 0b 3e d3 79 58 3d
       0.18925253 -0.03546615 0.13664338 0.052850556
000010 3d 90 93 3d 06 db 91 3d 86 ef 3e 3d f8 fa 98 3d
       0.07205246 0.071218535 0.046615146 0.074697435
000020 b3 a7 51 bd af bf 4e 3d 6b 94 de 3d 84 ef 41 be
       -0.05118532 0.050475772 0.10868152 -0.18939024
000030 d7 b3 6e 3d 36 cd 83 bd 64 36 fc bd e3 c2 30 3d
       0.058276977 -0.06435625 -0.12315062 0.04315461
000040 9e eb 12 3e fd d4 ae 3d 00 5b 62 bd bb 71 74 bd
       0.14347693 0.08536718 -0.055262566 -0.059678774
000050 f7 7c 1d 3e c6 ee fa 3d 0a 85 d2 3d 41 3b dc 3d
       0.15379702 0.12252574 0.102792814 0.10753489
000060 14 14 00 be 45 3d 29 3e 95 a4 c4 bd 94 67 f7 3d
       -0.12507659 0.16527279 -0.09601704 0.12080303
000070 6c c0 39 be 8c 13 2a 3d ce f3 2e 3e 68 b0 a8 3d
       -0.1813981 0.041522548 0.17085192 0.08236772
000080 92 7e df bd 78 4a fc bd 04 90 a1 bd d8 56 1d be
       -0.10912813 -0.12318891 -0.07888797 -0.1536516
000090 94 a1 15 bd 4e 5d 83 bb db 22 0b 3c 5b f9 06 be
       -0.036531046 -0.0040089255 0.008492197 -0.13181059
0000a0 6c 44 c0 bd 6f 0f 18 3d 9b 29 a1 bd ff e2 48 bc
       -0.093880504 0.037124094 -0.07869264 -0.012261151
0000b0 0b c5 ef bc 76 aa 68 bd 77 57 07 be fb 10 36 3e
       -0.029268762 -0.05680319 -0.13216959 0.17779915
0000c0 6d 64 19 3e 69 d9 5c 3d e9 15 09 3e 61 2d 4d 3d
       0.14979716 0.053918276 0.13387264 0.050092105
0000d0 d6 d2 26 be 40 f6 c6 bd
       -0.16291365 -0.09714937

conv1.bias f4 [2]
000000 94 57 91 3d 47 c8 3a 3e
       0.07096782 0.18240462

conv2.weight f4 [1, 2, 3, 3]
000000 cf c2 28 3d 03 a1 27 be 3a cb 09 3e d3 d0 cc bd
       0.04120141 -0.16370015 0.13456431 -0.100007676
000010 55 a2 1a 3e 64 5d ab 3d be fe 61 3d 88 73 8e 3d
       0.15100987 0.08367422 0.05517458 0.069556296
000020 2c c5 15 be db de 37 be d4 21 9b 3d 0b 2c 5d bc
       -0.14625996 -0.17956106 0.075748116 -0.01349927
000030 6f 33 80 bd 09 f3 f9 bd ea 96 62 3d 86 64 dc bd
       -0.0625981 -0.122045584 0.055319704 -0.10761361
000040 37 7e 05 be fc 96 ca bc
       -0.13036428 -0.024730198

fc1.weight f4 [128, 576]
000000 cb 56 e8 bc 20 3a 5f bc cb 5b 82 bc b0 a3 0d bd
       -0.028361699 -0.013624698 -0.01591291 -0.034579933
000010 a8 a7 9a bc 86 44 d1 bc db 67 b2 3c 7b 7e 7c 3c
       -0.018878773 -0.02554537 0.021778038 0.015411015
000020 b7 71 0a bd 3b a4 9c bc e8 d1 8e 3c 68 fa a8 bc
       -0.033799853 -0.01912128 0.017434075 -0.020627216
000030 0c 42 1b 3d e6 65 0d bd 40 9f 6d bb 5e 53 1d bd
       0.037904784 -0.034521006 -0.003625825 -0.038409583
000040 63 49 24 3d 20 9d e3 3b 44 99 1e bd 63 70 95 3c
       0.04010905 0.006946221 -0.038720384 0.018242067
000050 40 ab c0 3b 1a 17 08 3d c0 c0 07 3c 37 26 27 bd
       0.0058797896 0.033225156 0.008285701 -0.04080793
000060 e6 2e 65 3c 80 83 98 bb 56 bd 28 3b 1b 4b e2 3c
       0.013988232 -0.004654348 0.0025747619 0.027623704
000070 96 2f a3 3b fb 29 17 bc 53 0d f3 3c f3 10 00 bd
       0.004980038 -0.0092263175 0.02966944 -0.031266164
000080 0f 26 29 bd ab 18 43 3c 96 8d 79 bb b3 47 95 bc
       -0.04129606 0.011907737 -0.0038078777 -0.018222665
000090 84 03 21 3d 6e ec 8b 3c 1e e3 a5 bc 26 a4 10 bd
       0.039309993 0.017080512 -0.0202499 -0.035312794
0000a0 e0 1c fb 3c cb f3 1a bc b3 31 9e bc c2 98 02 3d
       0.030653417 -0.009457539 -0.019310808 0.031883962
0000b0 58 75 00 3d 7f 5b 07 3d f3 18 95 3c bb 1d 16 bd
       0.031361908 0.03304624 0.018200373 -0.036649447
0000c0 26 6e fb bc 8b 3a f3 bc 5b 02 04 3d 1f 95 22 bd
       -0.030692171 -0.029691001 0.03222881 -0.039692994
0000d0 1e 02 a4 3c ab 19 24 3b 88 5c b4 bc a8 f4 f3 bc
       0.02002054 0.0025039713 -0.022016779 -0.029779747
0000e0 96 80 d9 3b e3 fb fb 3c 7f 68 1b 3d 7e 6b f1 3c
       0.006637643 0.030759757 0.037941452 0.029470202
0000f0 47 b8 28 bd fe b6 b5 3c da 1f 01 bd 6b 89 9e bc
       -0.041191366 0.022181984 -0.031524517 -0.019352635
000100 a8 cc b3 bc ae e6 f7 bc ab ba 23 b8 16 da a5 3c
       -0.021948174 -0.030261364 -3.9036076e-05 0.020245593
000110 ec d2 09 3d f6 bd fd bc 2b 43 50 3c 13 b5 ed bc
       0.033648416 -0.03097437 0.012711327 -0.029017007
000120 80 c7 91 ba f7 eb 00 3d a3 df a2 3c 46 33 05 bc
       -0.0011122078 0.031475034 0.019882029 -0.0081299
000130 08 93 ce 3c 0b cf ad 3b 96 3b c9 bb 02 35 03 bd
       0.025216594 0.0053042225 -0.0061411364 -0.032032974
000140 56 b7 b6 3b 32 ba 00 bd 90 eb a8 3c 40 b4 92 3c
       0.0055760546 -0.03142757 0.020620137 0.017908216
000150 63 27 e5 3c f6 27 3d bc b0 ef c9 3c 6e dd 89 bc
       0.027972883 -0.011545172 0.024650425 -0.016829219
000160 bb c6 5f bc 90 1b 1d bc 60 bd e6 3b 50 c8 9f 3c
       -0.013658221 -0.009589091 0.007041618 0.019504696
000170 56 15 ca b7 76 1f b0 3b bb d5 41 bc 28 5a db bc
       -2.4090212e-05 0.005374844 -0.0118307425 -0.026776388
000180 f2 97 0d bd bc e7 19 bd 9f 2e 03 3d 24 1f 15 3d
       -0.034568734 -0.037574515 0.032026883 0.03640665
000190 56 5a e6 bc e3 ae ed 3c 00 f1 0a 3d 40 4b c1 3c
       -0.028119247 0.029014057 0.03392124 0.023595452
0001a0 a0 35 25 bc e0 f2 e2 bc 53 cf 87 bc 86 be 59 3c
       -0.010083586 -0.027703702 -0.016578352 0.013290053
0001b0 d6 00 a6 bc 80 53 82 3b 26 63 51 bc bb e3 5a 3c
       -0.02026407 0.003977239 -0.0127799865 0.013359959
0001c0 a0 47 7a bc 83 2a c4 bc 4b f5 e7 bc ae b7 b1 3c
       -0.015275866 -0.023946052 -0.028315207 0.02169403
0001d0 e0 0d 13 bc b0 a2 08 bc c3 04 a2 bc 60 dc ea bb
       -0.008975476 -0.008339569 -0.019777661 -0.007167384
0001e0 0e 68 87 bc 16 70 ab bc 16 d7 b9 bb 1b 55 5b bc
       -0.01652911 -0.02092747 -0.005671392 -0.01338699
0001f0 fc 7e 16 3d be f5 c5 3c 86 b8 59 bc d6 5d 4a 3b
       0.036742195 0.02416503 -0.013288623 0.0030878684
000200 93 29 c7 bc 80 f5 a2 3c 80 1f 00 bd 80 d9 fc 3c
       -0.024311816 0.019892454 -0.03128004 0.03086543
000210 3e c0 13 3d 0e 7a 0c 3d a3 7e 15 bd 96 26 8b bb
       0.03607201 0.034296088 -0.036497723 -0.004246543
000220 9b b5 b0 bc 96 fd d6 bb c0 3b 3c 3c 04 12 16 3d
       -0.021570971 -0.0065609915 0.011488855 0.036638275
000230 ba d6 14 bd 56 28 23 3b 3f b2 10 3d e6 2e c7 bc
       -0.03633759 0.0024895868 0.03532624 -0.024314355
000240 de 8b ef 3c 2b 94 41 3c 16 5d ae 3b f6 dd f2 3c
       0.029241499 0.011815111 0.0053211553 0.029646855
000250 ab cc a1 39 aa c1 1a 3d b6 b7 d3 bc 3f 71 19 3d
       0.00030860803 0.03778235 -0.025844436 0.037461516
000260 70 d9 b8 3c 56 2e c7 3a a0 55 51 bc 6b bc 77 bc
       0.02256462 0.0015196304 -0.012776762 -0.015120606
000270 5c a9 1b 3d 43 b8 eb 3c 56 36 be 3a 5b 71 9a bc
       0.03800331 0.028774386 0.0014512043 -0.01885288
000280 eb bb 86 bc e6 14 05 bc c0 cf ea bb c0 fa 45 3c
       -0.016447028 -0.008122658 -0.007165879 0.012083709
000290 6b 26 fc 3c 96 df 92 bb bb 3f 6d bc f6 eb ee bb
       0.030780038 -0.00448222 -0.014480527 -0.0072913123
0002a0 ab 30 e8 3c 80 15 cc bc 43 84 c8 3c 7e c1 92 3c
       0.02834352 -0.024912596 0.02447713 0.01791453
0002b0 b3 d7 dd 3c 00 00 2b ba 58 2b 19 bd 96 9f de 3c
       0.027080392 -0.00065231323 -0.03739485 0.027175706
0002c0 ab 9e 1e bc ab b8 5d ba e0 1c e9 3b 7e 8b df bc
       -0.009681384 -0.00084579986 0.007114038 -0.027288195
0002d0 33 69 a7 3c ce 2b 29 3d 5b a8 78 3c 93 58 d8 bc
       0.020435905 0.04130154 0.015176858 -0.026409423
0002e0 2b 28 59 3c b0 29 2d bc 5a 2a 27 3d eb f8 54 bb
       0.013254206 -0.010569021 0.040811874 -0.0032497
0002f0 d8 da b2 bc 9c 2b 1c 3d 80 51 b1 3c 23 1b e2 3c
       -0.021832868 0.038127527 0.021645308 0.02760083
000300 14 c9 1c 3d 8b 83 77 3c be c1 24 bd 0b a0 93 3b
       0.0382777 0.015107046 -0.04022383 0.0045051626
000310 10 de 36 bc 0b 44 d3 bc cb 9c a0 3c e0 ce 8b bc
       -0.011161342 -0.025789281 0.019606015 -0.01706642
000320 a0 ec d3 3c bb 1d da bc 96 5f 65 3c f0 c2 87 bc
       0.025869668 -0.026625505 0.01399984 -0.016572446
000330 cb 33 3a bc 80 de e7 bb 58 1e 21 3d 6b 39 9b 3b
       -0.0113648875 -0.0070760846 0.03933558 0.0047370694
000340 e0 50 0d 3d 80 a5 35 bc c0 39 97 3b d0 e4 48 bc
       0.034500957 -0.011086822 0.0046150386 -0.012261584
000350 e4 49 03 bd 6b bc ba 3b ce 1c 0a bd e8 ad 19 bd
       -0.03205289 0.0056987307 -0.033718877 -0.037519366
000360 2b 21 1e bd 50 cc a6 bc a6 ad 3c 3c cb bc 9e 3b
       -0.03860585 -0.020361096 0.01151601 0.004844283
000370 af 12 20 3d a3 4d b2 3c 9a eb 26 3d 50 b2 33 3c
       0.039080318 0.021765536 0.04075203 0.010967806
000380 2c fe 11 3d 2b f7 92 bc 00 11 bd 3b eb 39 a3 3b
       0.035642788 -0.017940124 0.005769849 0.0049812696
000390 33 ff 17 3d 53 fd e5 3c c2 19 1c 3d 2b be a1 3c
       0.03710861 0.028074896 0.038110502 0.019744
0003a0 56 6c 98 bb 76 ed 82 bc 4e 8f 0e 3d bb c4 ca 3c
       -0.0046515865 -0.01598237 0.034804635 0.024752012
0003b0 4b 01 d9 3c 00 e0 60 3a 60 01 b9 3b 60 4f 18 3d
       0.026489874 0.00085783005 0.005645916 0.037185073
0003c0 bc fa 01 3d 18 6e ac 3c 73 1e cd 3c 26 da 19 3c
       0.03173326 0.02104859 0.025038933 0.00939039
0003d0 ac 22 0a bd 38 34 a7 bc 67 92 19 3d de 73 cc 3c
       -0.033724472 -0.020410642 0.037493136 0.024957594
0003e0 86 7d 03 bd 00 58 31 3a 44 a9 22 bd ab 30 00 3a
       -0.03210213 0.0006765127 -0.039712206 0.00048900646
0003f0 d6 b1 29 3b 98 40 d0 bc 8b ae a7 3b 32 bc 01 3d
       0.0025893352 -0.025421426 0.0051172427 0.031673618

fc1.bias f4 [128]
000000 b3 10 63 3d 1b d3 fb bb 95 06 08 3e 00 db ec ba
       0.055435847 -0.007685078 0.13283761 -0.0018070638
000010 78 8c 1d bc 6b 37 bd 3d 90 b7 a6 bc 8a 9a 19 bd
       -0.00961601 0.09239086 -0.020351201 -0.037500896
000020 ab e9 fa ba 5b 07 c2 bc 43 f2 f4 3d 4b ab 12 bd
       -0.0019143125 -0.023685148 0.1196027 -0.03580789
000030 bb e9 08 3e 00 2d 22 ba d0 a7 c6 3d a5 7c c6 3d
       0.13370411 -0.0006186515 0.096999764 0.09691743
000040 0b 02 92 3b 52 9d 1c bd 40 7b 57 bc 8a 29 c9 3d
       0.00445581 -0.03823597 -0.013151944 0.09822376
000050 66 ad 38 ba ab 9f 80 bb 08 7c f2 bc 66 4e 1d bc
       -0.00070448813 -0.003925284 -0.029600158 -0.009601211
000060 95 9e 04 3e 5b 00 ef bc 13 06 fe bc ec 7b c5 bb
       0.12951119 -0.029174974 -0.031008756 -0.0060267355
000070 12 ba f1 3d 40 3c 07 bd a3 a7 90 3c 5c 34 14 bc
       0.11803068 -0.033016443 0.01765806 -0.009045687
000080 10 5e b0 bc 7f 03 b7 3d 02 a8 cc 3d db 4e e5 bc
       -0.021529227 0.08936214 0.099929824 -0.027991703
000090 4b 00 19 bc f5 f3 05 3e 38 40 ec 3d fb 47 bb bc
       -0.009338449 0.13081343 0.11535686 -0.022861471
0000a0 ab ad cd 3d a6 e1 17 bc 60 af 06 3e 60 68 0b bd
       0.1004289 -0.009270107 0.13152838 -0.034035087
0000b0 83 0f 03 bd bf c5 ef 3d 69 f1 e9 3d d6 ca 45 bb
       -0.031997215 0.11707639 0.114229985 -0.0030180714
0000c0 90 2d f9 bc e0 cd 34 bc d3 63 b8 bc 12 f3 ab 3d
       -0.030417234 -0.011035413 -0.022508537 0.08395971
0000d0 23 01 59 3d 94 74 ab 3d c0 77 4c bb ab db 16 ba
       0.0529796 0.08371845 -0.0031199306 -0.0005754779
0000e0 8e c7 da bc 56 07 13 bc 70 dd e7 bb 00 8e a7 ba
       -0.026706483 -0.008973917 -0.007075958 -0.0012783408
0000f0 ef 37 aa 3d 86 35 0c bc c7 d7 34 bb f7 76 ce 3d
       0.0831145 -0.008557683 -0.0027594434 0.100812845
000100 55 69 07 3e 94 39 f1 3d b5 c9 05 3e 9f 9b d6 3d
       0.13223775 0.1177856 0.13065226 0.10478901
000110 36 fa 4e bc 56 c5 67 bc 00 2c b8 bb c0 a2 db 3d
       -0.012632897 -0.01414617 -0.0056204796 0.107244015
000120 f0 82 07 bd 0f fd ff 3d 13 7c ee 3d eb 36 d5 3d
       -0.033083856 0.12499439 0.11644759 0.104108654
000130 bd 7c ec 3d 38 6d 01 3e 2b 88 ca 3d 8f 89 02 bd
       0.115472294 0.1263932 0.09889253 -0.031869467
000140 b6 5d 03 3e e0 25 cf bc 56 24 9b bc 46 df 95 bb
       0.12828717 -0.025286615 -0.018938225 -0.0045737354
000150 8e 51 d6 3d 5c d0 f0 3d a3 d5 e7 bc b2 47 ed 3d
       0.10464774 0.117584914 -0.028300112 0.115859404
000160 90 89 15 bc e8 e4 07 3e fe 5b bc bc 70 22 fa bc
       -0.009127036 0.13270915 -0.022993084 -0.030534
000170 d0 ce 45 bc ab d2 77 3d 3b 1a 22 bd c6 50 22 bd
       -0.012073234 0.060503643 -0.039575797 -0.039627813
000180 c0 65 8a bc 00 33 aa ba 9e 38 ab 3d 00 02 cb bc
       -0.016894221 -0.001298517 0.08360408 -0.024781227
000190 4a 72 1a bd 34 1e 1b bd cb 64 97 3d a8 dd ce 3d
       -0.03770665 -0.0378706 0.073922716 0.10100871
0001a0 76 0f a5 bb 88 c7 d4 3d d5 19 06 3e 20 0b ab bc
       -0.0050372435 0.1038962 0.13095792 -0.020879328
0001b0 05 5d aa bb b5 7d ef 3d 91 0e e1 3d 98 12 e1 bc
       -0.005199077 0.116938986 0.109891064 -0.027474687
0001c0 6b 06 88 3d 31 dd b9 3d 9f 83 e2 3d 71 bc 00 3e
       0.06641849 0.09075392 0.11060261 0.12571885
0001d0 86 87 af bb c0 23 f0 3d c0 3e cb 3d dd f9 a0 3d
       -0.005356732 0.11725569 0.09924078 0.07860158
0001e0 fb b6 f9 bc 6f 04 f1 3d e8 d5 26 bd 19 7f d6 3d
       -0.03048276 0.11768424 -0.04073134 0.10473461
0001f0 80 2a ed bc 2b 4a 61 bc 52 1e b8 3d 85 49 c2 3d
       -0.02895093 -0.013750593 0.08990158 0.09486679

fc2.weight f4 [12, 128]
000000 fd f8 6c bd ca 68 92 3d 1a f8 62 bc 1b 91 08 3d
       -0.05785464 0.07148893 -0.013853097 0.03334151
000010 6d 0a 9f bd 93 43 e6 bd 82 e9 6e bc 70 fb b6 bb
       -0.077656604 -0.112433575 -0.01458204 -0.005584173
000020 a2 d5 86 bd 5b 45 86 3d e3 53 e3 bd 72 59 23 bd
       -0.06583716 0.06556197 -0.110999845 -0.039880224
000030 f3 78 d4 bd c1 a9 3f 3d 3b 23 88 3b cb 96 4b 3d
       -0.10374632 0.04679275 0.0041545904 0.049704354
000040 cf 07 b8 bd c6 8e a3 bd 37 4c 45 3d c7 9c 07 bd
       -0.08985864 -0.07986216 0.048168387 -0.0331085
000050 3e 66 51 3d 63 7e e9 3b 5d 32 83 bd 2a c8 33 ba
       0.051122896 0.007125662 -0.064060904 -0.0006858135
000060 90 22 24 bd b8 0d c2 3c b9 5a 3d bd 47 51 a6 3d
       -0.040072024 0.023688182 -0.046229098 0.08120971
000070 e0 0d 64 bd 09 ca 76 bd ca a6 3a bd 40 6e 94 3c
       -0.055677295 -0.06025127 -0.04556922 0.018118978
000080 af 7d 83 3d 89 c1 54 3d 8f f9 16 3d 5d db 27 3c
       0.064204566 0.051942382 0.03685909 0.010245171
000090 bc 5d 5d 3d 4c 69 52 3d 74 81 27 3c b3 bb 4b bd
       0.05404447 0.05136995 0.010223735 -0.04973955
0000a0 40 d8 0e 3d 77 3e 90 3c fd eb d6 bd 88 b0 18 bd
       0.0348742 0.01760791 -0.1049423 -0.03727773
0000b0 e0 ad ab bd 72 07 4e 3d 17 98 1f bd d3 5e 8b 3d
       -0.083827734 0.05030007 -0.038963404 0.06805196
0000c0 3e b2 a7 bd 0a ea 2f bc 00 09 12 3d ac b9 c8 bd
       -0.08188294 -0.010736952 0.035653114 -0.09801039
0000d0 58 a9 65 3b 50 db 5a bc e0 28 93 bd 1b e3 7c 3d
       0.0035043564 -0.013357952 -0.07185531 0.061740022
0000e0 8c 00 a3 3d 8c 8c 9f 3d ca 1a b0 bd c0 eb 23 3d
       0.07959089 0.07790479 -0.085988596 0.04001975
0000f0 5f a0 97 bd 83 8d a6 bd d8 7f 50 3d 0a c8 d4 bd
       -0.07403635 -0.0813246 0.05090317 -0.10389717
000100 81 a6 89 bd 32 db 2f 3d 95 2c 88 bc 45 f5 78 bd
       -0.06721211 0.04293365 -0.01662282 -0.060780782
000110 b1 6c a9 bb ac aa 1d bc 2f 37 2f 3d 7e 6e bc bd
       -0.0051704277 -0.009623211 0.042777237 -0.09200762
000120 26 74 a7 bd 8e ed b6 bd da 82 75 bd 75 d4 c4 bd
       -0.081764504 -0.08932029 -0.059939243 -0.096108355
000130 3e 19 60 bd 69 4c 07 3d 5d 5a 15 bd f1 9c 89 bc
       -0.054711573 0.033031855 -0.03646313 -0.016798468
000140 e6 85 bc bd 7c 7a 76 bd b9 62 69 3c d7 44 98 3d
       -0.092052266 -0.060175404 0.014244729 0.07435005
000150 11 79 c8 bd e9 7b 0b 3d bf 98 72 3d 4c d0 98 bd
       -0.097887166 0.034053717 0.0592277 -0.074616045
000160 4e ab ae bd 1a 98 d3 bd 6a 8f a1 3d e3 b4 72 3d
       -0.085287675 -0.103317454 0.07888682 0.05925454
000170 9a 79 65 3d 40 c4 d2 ba ee 98 4b bd 23 a1 0e bc
       0.05602417 -0.0016080216 -0.049706392 -0.00870541
000180 5c b5 ae 3d cd 20 1e bc f2 3a d2 bd 7a 76 17 3d
       0.08530685 -0.009651375 -0.10265149 0.036978222
000190 c4 30 44 3d 49 f2 43 bc 29 6e cd bd cf 73 94 bd
       0.04789807 -0.011959621 -0.10030777 -0.07248651
0001a0 15 31 b4 bb 67 52 d6 bd 4b 89 98 bd 91 6f 31 3d
       -0.005499015 -0.10464936 -0.074480616 0.04331929
0001b0 69 ee 50 3d cd 85 85 bd 3f 9d 7d 3c 5c f5 8a bd
       0.051008616 -0.06519661 0.015479385 -0.0678508
0001c0 ae b7 31 bd 9e 8a e3 bd 86 f8 9b bc ca 32 1c bd
       -0.04338806 -0.111104235 -0.019039404 -0.038134374
0001d0 66 77 b3 3d cf e1 5f bd 48 39 43 bd c0 b0 9a bd
       0.08763008 -0.054658707 -0.04766205 -0.07553244
0001e0 ad 92 91 3d 7e 63 80 bd 20 0a 91 3d 53 c3 68 bd
       0.07108054 -0.06268977 0.07082009 -0.0568269
0001f0 a9 50 29 3d 85 53 1d 3c 10 7c 5b bd 9f 30 4e 3d
       0.04133669 0.009602432 -0.053585112 0.050339337
000200 0c ce 84 bc 72 15 74 3d d0 f2 51 bd 83 bc 37 3d
       -0.016211532 0.059590764 -0.051256955 0.044857513
000210 66 4c 11 3d 44 b4 24 bd fe 31 aa bd da c0 76 bd
       0.03547325 -0.040210977 -0.083103165 -0.06024251
000220 2e 54 00 3a d2 63 88 bd 12 c6 09 be d4 ab 69 bd
       0.0004895356 -0.06659664 -0.13454464 -0.057048634
000230 4f 01 d1 bd 83 fc 95 bd c7 26 23 be 25 7c 9a bd
       -0.10205328 -0.073235534 -0.15932761 -0.0754321
000240 00 e4 1c 3c 16 86 74 3d 4d c3 38 3c 2c 3d ce bd
       0.009575844 0.059698187 0.011277032 -0.10070261
000250 57 3e 2b bd de 5c c3 bc fd c9 2f bd af 25 d5 3c
       -0.0418075 -0.023847993 -0.04291724 0.026018946
000260 05 af 02 be 74 01 8f bd b0 4e 24 bd a0 10 39 bd
       -0.12762077 -0.06982699 -0.040114105 -0.04518187
000270 07 d4 fc bd 1c dc b2 3d 88 77 a8 bd 55 fe fa 3c
       -0.123451285 0.08733389 -0.08225924 0.030638853
000280 a2 80 92 3c f2 e2 1f be 7a 22 3e be d8 64 ac bd
       0.017883603 -0.15613917 -0.1856784 -0.08417672
000290 fc b5 98 3d 60 78 25 be 84 31 31 be c5 cb 4a 3d
       0.07456586 -0.161592 -0.17304045 0.049510736
0002a0 4a fd 8d bd 2e 59 a3 3d ad 48 32 be 69 ec 2e bd
       -0.06933077 0.07975994 -0.17410536 -0.042705927
0002b0 6a b5 2d 3b 4f 1c 18 be f9 d0 32 be e0 46 89 3d
       0.0026505836 -0.14854549 -0.17462529 0.067029715
0002c0 57 c0 0c 3d d0 84 98 bd 83 02 a3 bd 2c 8f 22 be
       0.034363117 -0.07447207 -0.079594634 -0.15874928
0002d0 fc d9 78 bd 70 2b 35 be 0d 18 5d bc a1 98 8a bc
       -0.06075476 -0.17692351 -0.013494504 -0.016918482
0002e0 1b 0a 92 3d 47 64 93 3d b8 f2 cc bc 63 b5 89 3d
       0.07130834 0.07196861 -0.025018081 0.0672405
0002f0 07 86 41 bd a9 af 29 3d 4d f4 d2 bd a5 76 0f be
       -0.04724696 0.04142729 -0.10300503 -0.14010103
000300 2f 18 b5 bd 22 d3 d4 bd 7e 36 2d be 97 4b 0b bd
       -0.08842503 -0.10391833 -0.16915318 -0.034007635
000310 62 47 f2 bc 28 c1 b8 3c cf e6 a2 3d 33 19 e1 bd
       -0.029575054 0.022553042 0.079541795 -0.109911345
000320 aa ed d9 bb c7 23 f2 bd 13 63 a3 bd de 60 00 be
       -0.006650646 -0.1182323 -0.07977881 -0.12536952
000330 44 1e 0b be 7a c1 01 be 40 b6 7f bc c3 b7 50 bd
       -0.13585764 -0.12671462 -0.015607417 -0.0509565
000340 97 e9 2e bd 95 94 ca 3c eb bc 55 3d aa 35 bd bd
       -0.042703237 0.024729053 0.05218212 -0.09238751
000350 ae 27 08 be 62 41 1a be 1d 7b 61 bd 2c 03 15 be
       -0.13296387 -0.15064004 -0.05504905 -0.14551991
000360 3f f9 19 bd 60 38 ea bd 2d f1 fb bc d0 f0 6c 3c
       -0.037591215 -0.11436534 -0.03075465 0.014461711
000370 9a 41 75 bd 60 80 92 bd 70 32 fe 3c 50 30 85 bd
       -0.059877016 -0.07153392 0.03102991 -0.065033555
000380 82 30 ae bd bc 77 5f bd 50 05 cf bd d9 69 ad 3d
       -0.08505346 -0.054557547 -0.10108435 0.084674545
000390 c9 84 95 bd 6e 9c 49 bb ae 4f 6f bd 38 44 fb bd
       -0.073007174 -0.0030763405 -0.058425598 -0.12268871
0003a0 20 e6 5c bd df bb 0f be 3b 66 ad bd ff 27 37 3d
       -0.0539304 -0.14036511 -0.084667645 0.044715878
0003b0 fc 5f 4f 3d b7 c9 39 bd dc 0d e5 bd 37 aa 63 bc
       0.050628647 -0.045358386 -0.11184284 -0.013895563
0003c0 65 dc 13 be 38 d7 7b bd d2 f3 04 be d7 56 c1 bd
       -0.14439543 -0.061484545 -0.12983635 -0.094403915
0003d0 86 41 60 3d 44 d7 11 bd 93 ee a5 bd a0 0e 97 bd
       0.054749988 -0.035605684 -0.08102145 -0.07375836
0003e0 62 29 96 bd bd 39 1f be aa 53 8a 3d 24 71 1f be
       -0.07332112 -0.15549369 0.06754239 -0.15570503
0003f0 57 80 a3 3d 1d 49 a1 3d 4b 46 1d bd 73 94 8a bd
       0.07983463 0.078752734 -0.038397115 -0.06766596

fc2.bias f4 [12]
000000 52 98 f1 3b 14 d3 82 bc 2b 4f bd 3d dd 89 ab bd
       0.0073728943 -0.01596979 0.09243616 -0.08375905
000010 a9 bc 5d bd b3 2a 0b be 96 be 2c 3c 90 78 a2 3d
       -0.054135 -0.13590507 0.010543486 0.07933152
000020 c3 9f 09 3e d8 36 f2 bd 1c e3 71 3d b1 c9 95 bd
       0.1343985 -0.11826867 0.05905448 -0.0731386
